saves/model01.pth (torch, 365697 bytes, 12 tensors)

conv1.weight f4 [6, 3, 5, 5]
0	0xbda6719d	-0.08127139
1	0xbd5ecdbc	-0.054395422
2	0xbdc828c8	-0.097734034
3	0xbaa4ab12	-0.001256319
4	0x3dbefc03	0.09325411
5	0xbc38b9f0	-0.0112748
6	0xbe1cf9fa	-0.15329733
7	0x3d95c449	0.07312829
8	0x3d9007c8	0.07032734
9	0x3dba0325	0.09082631
10	0xbe260c93	-0.16215734
11	0xbd76950a	-0.06020073
12	0x3d50a141	0.050935034
13	0x3dca67e8	0.098831
14	0x3d8ff3b7	0.07028907
15	0x3cb4d38f	0.022073535
16	0x3d87b14f	0.06625616
17	0x3d12cdc6	0.035840772
18	0xbd516b83	-0.05112792
19	0xbd97f20a	-0.07419212
20	0x3d3c9315	0.046038706
21	0x3caead7f	0.021322964
22	0x3c4dcd2c	0.012561124
23	0xbd8cc589	-0.06873614
24	0x3d7d5a9f	0.061854
25	0xbe581470	-0.21101546
26	0xbd8c1a2c	-0.068409294
27	0xbe267af1	-0.16257836
28	0x3d8cb9f6	0.06871407
29	0xbd68d8d5	-0.056847412
30	0xbe5f54f8	-0.21809757
31	0xbcdbf044	-0.026847966
32	0x3d39edc1	0.045392755
33	0xbcf49fc8	-0.029861346
34	0xbd989acf	-0.074514024
35	0xbe6f5d50	-0.2337544
36	0xbd2e584d	-0.04256468
37	0x3d77bc0d	0.060482074
38	0x3bd59740	0.0065182745
39	0xbdd5e434	-0.10443917
40	0xbe1c8b04	-0.15287405
41	0x3d303ad1	0.04302484
42	0x3dc6ef83	0.09713652
43	0xbd276c3d	-0.04087471
44	0x3cc12785	0.023578415
45	0xbd57f72d	-0.05272596
46	0xbd157935	-0.036492545
47	0x3d1665cf	0.036718186
48	0x3d327f20	0.043578267
49	0xbe1aa2c5	-0.15101154
50	0xbe1d99c5	-0.1539069
51	0x3d868056	0.06567447
52	0x3c103ac6	0.008803075
53	0xbbcf91c1	-0.006334514
54	0x3bfe28d8	0.007756334
55	0xbe48f2a2	-0.19623807
56	0x3ce42e8b	0.027854225
57	0x3d0edf69	0.03488103
58	0xbd387bf9	-0.045040105
59	0x3df37c10	0.118888974
60	0xbe167449	-0.14692797
61	0xbd1f61c5	-0.0389116
62	0x3e0bb0ec	0.13641709
63	0x3dd50f64	0.10403326
64	0x3bd9abb0	0.006642781
65	0x3d1459a1	0.03621829
66	0x3e48964f	0.19588588
67	0x3e3892a4	0.18024689
68	0xbcd2cddd	-0.025732929
69	0x3d9896c5	0.07450632
70	0x3de981b4	0.11401692
71	0x3e78d13e	0.2429857
72	0x3d8cb023	0.06869533
73	0xbd4a3742	-0.049369104
74	0xbcc1f782	-0.023677591
75	0x3e481140	0.1953783
76	0x3e436eba	0.19085208
77	0x3dece2a7	0.11566668
78	0x3da3b898	0.07994193
79	0x3e124871	0.14285447
80	0x3e1cae22	0.15300801
81	0x3e381474	0.17976552
82	0x3db61f8f	0.08892738
83	0x3d605db2	0.054776855
84	0xbcd11f37	-0.02552758
85	0xbdf59235	-0.119907774
86	0xbd988c4a	-0.07448633
87	0xbdb099fd	-0.08623121
88	0xbcfeed86	-0.03111912
89	0xbda93832	-0.082626715
90	0xbd3b23a6	-0.045688294
91	0xbd9ca79e	-0.07649158
92	0x3d3b452c	0.045720264
93	0x3db0999e	0.0862305
94	0x3d2a8df0	0.04163927
95	0x3dd97209	0.106174536
96	0xbd82f711	-0.063947804
97	0x3cbfaa8d	0.023396755
98	0x3de49f6d	0.111632206
99	0xbde8146b	-0.113320194
100	0x3a43e7ab	0.0007473181
101	0x3e2d0739	0.16897286
102	0x3d64d63f	0.055868383
103	0x3dfd86de	0.123792395
104	0xbcbce327	-0.023057533
105	0x3db4fa4f	0.08836805
106	0x3d4b7b2d	0.049678016
107	0xbbdc06d8	-0.006714683
108	0x3d0f8232	0.035036273
109	0xbcbb0e4a	-0.022833962
110	0xbcba771d	-0.022761876
111	0xbd971c11	-0.073784
112	0xbe06d9f2	-0.13169077
113	0x3c56507c	0.013080712
114	0xbddedfa4	-0.108825
115	0xbdc64326	-0.09680776
116	0xbd5db3e5	-0.05412664
117	0x3d6039c1	0.05474258
118	0xbd87f3eb	-0.066383205
119	0xbd9a065b	-0.075207435
120	0x3e12f78d	0.14352246
121	0xbc73e6fd	-0.014886615
122	0xbd26a664	-0.040686026
123	0xbd3179b0	-0.04332894
124	0xbd2c4744	-0.04206015
125	0xbde4edde	-0.11178182
126	0xbdd748d6	-0.10511939
127	0xbd639504	-0.055562034
128	0xbdddc797	-0.10829084
129	0x3deb8904	0.11500743
130	0xbd62ca6e	-0.055368833
131	0x3d1db9d2	0.03850729
132	0xbdcf51c7	-0.1012302
133	0xbe108bb7	-0.14115797
134	0x3c6e75c8	0.014554448
135	0xbe4c7863	-0.19967799
136	0xbe7a3a03	-0.24436192
137	0xbd989546	-0.07450347
138	0xbd636873	-0.055519532
139	0x3c201166	0.009769773
140	0x3d714ec8	0.058913022
141	0xbd748d99	-0.05970535
142	0xbe24921b	-0.1607136
143	0xbcdfb9d7	-0.027310295
144	0xbd327f0e	-0.0435782
145	0x3e06a9b0	0.13150668
146	0xbc4e2426	-0.012581861
147	0xbccf9148	-0.02533783
148	0xbd067ca0	-0.032833695
149	0xbdea606c	-0.11444172
150	0xbdde6494	-0.108590275
151	0xbdd66c26	-0.104698464
152	0xbde3cdf9	-0.111232705
153	0x3abafbbc	0.0014265697
154	0xbcd3cd7b	-0.025854817
155	0x3da98d06	0.08278851
156	0xbd611b7f	-0.054957863
157	0x3d1ecd1e	0.038769834
158	0x3cfa5068	0.030555919
159	0x3c2f7a06	0.010710245
160	0x3df452ae	0.119298324
161	0x3dff35cf	0.12461435
162	0x3dcf8a28	0.10133773
163	0xbcd59223	-0.02607066
164	0xbdd3394a	-0.103136614
165	0x3d5c0211	0.05371291
166	0x3db82fde	0.08993505
167	0x3df24209	0.118290015
168	0xbe0ce378	-0.13758647
169	0xbd80770b	-0.06272706
170	0x3d898dbd	0.067164876
171	0x3e075e23	0.13219504
172	0x3cbc1944	0.022961266
173	0x3d63446c	0.055485174
174	0xbdcfde48	-0.10149819
175	0xbd9fa414	-0.07794967
176	0xbd938f8b	-0.07205113
177	0x3d6f38aa	0.05840365
178	0x3defc5fe	0.11707686
179	0xbba0395f	-0.0048896517
180	0x3e0e5f9a	0.13903657
181	0x3dce1e85	0.10064415
182	0x3cac208c	0.021011613
183	0xbd8c7cbd	-0.068597294
184	0xbca617fc	-0.020275109
185	0x3e46bfab	0.19409053
186	0x3d710714	0.05884464
187	0x3c191211	0.009342686
188	0xbe154afb	-0.14579384
189	0xbe398e93	-0.18120794
190	0x3e4e2210	0.20130181
191	0x3dda31a7	0.10654002
192	0xbdd4442d	-0.10364566
193	0xbe4d1392	-0.20026997
194	0xbe1b4acb	-0.1516525
195	0x3d9a3385	0.07529358
196	0x3e44ca41	0.19217779
197	0xbc1c8b87	-0.00955475
198	0xbe249067	-0.1607071
199	0xbe656236	-0.22400746
200	0x3d99da2b	0.07512315
201	0xbdc95ad5	-0.09831778
202	0x3e189290	0.14899659
203	0x3dc1b671	0.09458626
204	0xbd9ef010	-0.07760632
205	0x3d83d28d	0.06436644
206	0x3ddd7eab	0.108151756
207	0x3e125fa2	0.14294294
208	0xbd20f9c5	-0.0393007
209	0xbe0a6c9e	-0.13517997
210	0x3e07d56b	0.13265006
211	0x3df414ac	0.11918005
212	0x3de97e75	0.11401073
213	0xbe05b422	-0.13056996
214	0xbe590484	-0.21193129
215	0x3e22cd92	0.15898731
216	0x3d2a9dd7	0.041654434
217	0x3d79b09e	0.06095945
218	0xbe16f5e4	-0.14742237
219	0xbe0ad212	-0.13556698
220	0x3e0156ef	0.12630819
221	0x3e3c9087	0.18414508
222	0x3e1ab35a	0.1510748
223	0xbe116321	-0.14197971
224	0xbe050b79	-0.12992658
225	0x3e1f87a1	0.15579082
226	0x3dfeab4d	0.12435017
227	0x3e1f3f7a	0.15551558
228	0x3dc145c4	0.09437135
229	0x3dba8a3c	0.09108397
230	0x3cb92d1d	0.02260452
231	0xbde5637d	-0.112006165
232	0xbd907114	-0.07052818
233	0xbdeeb283	-0.11655142
234	0x3dc9b04a	0.098480776
235	0x3c35e639	0.011102253
236	0xbd8b3f54	-0.06799188
237	0xbd92bbb7	-0.0716471
238	0xbcf1f5e3	-0.029536193
239	0x3b5e6eee	0.003394063
240	0xbdea5468	-0.114418805
241	0xbe3ad7fe	-0.18246457
242	0xbd64bd92	-0.05584485
243	0xbddff540	-0.109354496
244	0xbe49dad5	-0.19712384
245	0xbd23e678	-0.040014714
246	0xbde0c0a9	-0.10974247
247	0xbdb2f44f	-0.087380044
248	0xbe079cfe	-0.13243482
249	0xbe2aca6d	-0.16678782
250	0x3e201cbe	0.15635964
251	0x3c301d3f	0.01074916
252	0x3c6c256f	0.014413222
253	0xbbf16530	-0.007366799
254	0x3d737aa1	0.05944312
255	0xbcc05bee	-0.023481335

conv1.bias f4 [6]
0	0x3e272b79	0.16325177
1	0xbccfd774	-0.02537129
2	0xbe1498be	-0.14511392
3	0x3e57a7d4	0.21060115
4	0x3e7a86d5	0.24465497
5	0x3d2e186f	0.04250377

conv2.weight f4 [12, 6, 5, 5]
0	0x3e0b9ff7	0.1363524
1	0xbd2f104f	-0.042740162
2	0xbdbeef4b	-0.09322985
3	0xbddf0ce5	-0.10891131
4	0xbd36a82f	-0.044593986
5	0x3e719542	0.23592094
6	0xbe697d3f	-0.22801684
7	0x3d869324	0.065710336
8	0x3dbaba30	0.09117544
9	0xbd52f9bb	-0.051507693
10	0xbcf191c0	-0.029488444
11	0xbdf728cb	-0.120683275
12	0x3d9df1d7	0.07712143
13	0x3ca55adf	0.020184932
14	0xbe0c1446	-0.13679609
15	0x3e643bbc	0.22288412
16	0xbd16b953	-0.036797833
17	0xbd0da0a5	-0.03457703
18	0x3e007abc	0.1254682
19	0xbd9eb2b4	-0.07748929
20	0x3e0f0466	0.13966522
21	0xbe064661	-0.13112785
22	0xbd437aff	-0.04772472
23	0x3dad30f8	0.08456606
24	0xbc047a80	-0.008085847
25	0x3df7aefc	0.120939225
26	0x3d137521	0.036000375
27	0x3e0aa4a3	0.13539366
28	0x3d2b21f7	0.04178044
29	0x3d63ae6c	0.055586264
30	0xbd5fd664	-0.05464782
31	0xbcd5707e	-0.026054617
32	0xbdf47a74	-0.119374186
33	0x3c432676	0.011911025
34	0x3d641d0f	0.055691775
35	0x3e0d8e60	0.13823843
36	0x3da1ab6b	0.078940235
37	0xbc773014	-0.015087146
38	0xbe6e38de	-0.2326388
39	0xbd926829	-0.07148773
40	0xbcef06d9	-0.02917807
41	0xbdb51faa	-0.0884393
42	0x3bc24334	0.0059284214
43	0xbdc57a80	-0.09642506
44	0xbc0f2177	-0.008736006
45	0xbddc6d2b	-0.1076301
46	0x3e3b1ed7	0.18273483
47	0xbd2b7785	-0.04186203
48	0xbd8856e1	-0.06657196
49	0xbddcfd49	-0.10790498
50	0x3e11ae60	0.14226675
51	0x3e041593	0.12898855
52	0x3b83cef8	0.0040224753
53	0xbb1849dd	-0.0023237385
54	0xbd79c534	-0.060979083
55	0x3e2440d0	0.16040349
56	0x3d8623b2	0.06549777
57	0xbdf607be	-0.120131955
58	0xbd354f7c	-0.044265255
59	0x3dd11d96	0.10210721
60	0x3dd231c3	0.102633975
61	0xbde555e5	-0.11198024
62	0xbe20f6b5	-0.15719111
63	0xbe0c898a	-0.13724342
64	0xbd655176	-0.05598589
65	0x3d8e940d	0.06961832
66	0x3e0e163b	0.13875668
67	0xbe3b061b	-0.18264048
68	0xbddd7882	-0.10814001
69	0x3d6d43e7	0.057926085
70	0xbc522f75	-0.012828697
71	0x3e1c71e8	0.15277827
72	0xbe114d65	-0.1418968
73	0xbe0a7e86	-0.13524827
74	0x3b9194c5	0.0044427835
75	0xbdebccde	-0.11513685
76	0xbe0ab47b	-0.1354541
77	0x3e31892f	0.17337488
78	0x3e2af869	0.16696323
79	0xbddc0cd4	-0.10744634
80	0x3e00f9ea	0.12595335
81	0x3df8cd20	0.121484995
82	0xbc440e83	-0.0119663505
83	0xbd912019	-0.070862
84	0xbce486de	-0.027896341
85	0x3eccffb1	0.40038827
86	0x3e96c835	0.2944962
87	0x3cd5c8d0	0.026096731
88	0xbdbeba11	-0.09312833
89	0x3bc9fd42	0.006164224
90	0x3df75147	0.12076049
91	0xbc89f57b	-0.016840687
92	0xbd83ef12	-0.064420834
93	0x3aa9b389	0.0012947182
94	0xbd5338fa	-0.05156801
95	0xbdea4e26	-0.11440687
96	0xbdf1e79d	-0.11811755
97	0xbd8e5511	-0.06949819
98	0xbe8360f4	-0.25659907
99	0xbead6630	-0.33867025
100	0xbea26d45	-0.3172399
101	0xbdaf4410	-0.08557904
102	0x3e06e504	0.131733
103	0xbdde69b1	-0.10860003
104	0xbe34c7e0	-0.17654371
105	0xbe11c42d	-0.14234991
106	0xbcbca27c	-0.023026697
107	0x3e412511	0.18861796
108	0x3ce31917	0.027721925
109	0xbdf8d24f	-0.12149488
110	0xbe52fc88	-0.20604146
111	0x3cc26076	0.023727637
112	0x3ee04584	0.43803036
113	0x3e402b64	0.18766552
114	0x3ce431b5	0.027855733
115	0xbe8a1e19	-0.26976088
116	0x3d43df93	0.04782064
117	0x3e7e5094	0.24835426
118	0x3e14aca2	0.14518979
119	0x3e338142	0.17529777
120	0xbd97423e	-0.073856816
121	0xbdc029e0	-0.09382987
122	0x3cb92c98	0.022604272
123	0xbd4c862c	-0.049932644
124	0xbd9a35d6	-0.075298
125	0x3d57142a	0.052509464
126	0xbe1440e7	-0.14477883
127	0x3c05f868	0.0081769
128	0xbbd71b81	-0.006564558
129	0xbcc7e619	-0.024401711
130	0xb9edd95d	-0.0004536611
131	0xbdb11a31	-0.08647574
132	0x3c4ddac0	0.012564361
133	0x3d71b66d	0.059011865
134	0xbd46f542	-0.04857374
135	0xbdbac1a3	-0.091189645
136	0xbd534b4b	-0.051585477
137	0x3c816ede	0.015799936
138	0x3d253209	0.04033092
139	0xbdb58419	-0.08863086
140	0x3df047b6	0.11732428
141	0x3d7a9d25	0.06118502
142	0xbb6a7d47	-0.0035780238
143	0x3cc83f6e	0.024444308
144	0x3c5b9907	0.013403184
145	0x3e196bcc	0.14982527
146	0xbdafc224	-0.08581951
147	0x3de8bd67	0.11364251
148	0x3c52e7ab	0.012872617
149	0xbde03e65	-0.10949401
150	0xbd462f18	-0.048384756
151	0x3e0479c2	0.12937072
152	0x3e56f647	0.20992385
153	0x3d72e8ef	0.059304174
154	0xbd302616	-0.04300507
155	0x3d78d403	0.060749065
156	0x3e26b624	0.16280419
157	0xbccda1a6	-0.025101494
158	0xbe6fa643	-0.23403268
159	0xbe1e2cfe	-0.1544685
160	0x3e57745e	0.21040484
161	0xbd3b5418	-0.045734495
162	0xbeb16809	-0.34649685
163	0xbe058b7d	-0.13041492
164	0x3e079c86	0.13243303
165	0xbce2d2e0	-0.027688444
166	0xbe474421	-0.19459583
167	0xbd9462c6	-0.07245402
168	0x3e4110a3	0.18854003
169	0x3e44020c	0.19141406
170	0xbce48335	-0.027894596
171	0xbd262999	-0.040567014
172	0x3e5d83fa	0.21632376
173	0x3e78e319	0.24305381
174	0x3dd631bd	0.104587056
175	0x3db9d170	0.0907315
176	0xbd73dfde	-0.05953967
177	0xbddddcf6	-0.108331606
178	0xbdbee931	-0.093218215
179	0x3d36b8ce	0.044609837
180	0x3b32721b	0.0027228657
181	0xbce81bf1	-0.028333636
182	0xbd82e11d	-0.06390593
183	0xbe21da0a	-0.15805832
184	0x3d8d1b16	0.06889932
185	0xbd7efb0e	-0.062251143
186	0xbd1fe356	-0.039035164
187	0x3d4d64a7	0.050144818
188	0xbc8051eb	-0.015664062
189	0x3cc03739	0.023463832
190	0x3e6926eb	0.22768752
191	0x3e24f263	0.16108088
192	0xbdfef604	-0.124492675
193	0xbdb3f4f9	-0.08786959
194	0x3d1d30bc	0.038376555
195	0x3d2097b7	0.039207187
196	0x3d631578	0.055440396
197	0x3b6bbdba	0.003597124
198	0x3d54cf9f	0.051955815
199	0x3e4a9904	0.19784933
200	0xbd0102d1	-0.031496827
201	0xbdbc44c8	-0.091928065
202	0x3baab5bd	0.005209653
203	0xbd99a3e9	-0.075019665
204	0x3defd5a5	0.11710671
205	0xbdebacee	-0.11507593
206	0x3da839fc	0.08214185
207	0x3d2d6cc7	0.042340066
208	0x3dbed5b8	0.09318107
209	0x3d9237e6	0.07139568
210	0x3df18fb9	0.11794991
211	0x3cc05c30	0.023481458
212	0xbd068c90	-0.032848895
213	0xbbb0d784	-0.005396785
214	0xbdce2cf2	-0.100671664
215	0x3dc86146	0.097841784
216	0xbd98c8df	-0.07460188
217	0xbbb7dedf	-0.005611285
218	0x3d2159cf	0.03939229
219	0x3caec33b	0.021333328
220	0xbc440126	-0.011963164
221	0xbdae54b0	-0.085122466
222	0x3c538cf8	0.012912028
223	0x3d946713	0.07246222
224	0xbcc3e72d	-0.023913944
225	0x3e38c7a9	0.18044914
226	0x3c4624d7	0.012093744
227	0xbe540cf0	-0.2070806
228	0xbe409c9c	-0.18809742
229	0x3e65fdf2	0.22460154
230	0xbe8e70c2	-0.27820402
231	0xbdd55059	-0.10415716
232	0xbd0df7e7	-0.034660246
233	0x3cfb3d28	0.03066881
234	0x3ddf5586	0.10904984
235	0xbe468887	-0.19388019
236	0xbe2111da	-0.15729466
237	0x3e168203	0.14698033
238	0xbcc05361	-0.023477258
239	0xbd05acc1	-0.032635454
240	0xbe7281b8	-0.23682296
241	0x3c99fb23	0.01879651
242	0x3d2e5ca9	0.042568836
243	0xbe97d005	-0.29650894
244	0xbe2af373	-0.16694431
245	0xbea7a916	-0.3274619
246	0xbd4eec6c	-0.05051844
247	0xbe08f7cf	-0.13375781
248	0xbe9c7f95	-0.30566087
249	0xbd18b7cd	-0.03728466
250	0x3dec5b3e	0.115408406
251	0xbe40a59f	-0.1881318
252	0xbdd1319d	-0.10214541
253	0xbd2b5c14	-0.04183586
254	0x3d447d88	0.04797128
255	0x3d679063	0.056534182

conv2.bias f4 [12]
0	0xbd8e1578	-0.069376886
1	0xbc8b31d8	-0.01699154
2	0x3b8b5f8c	0.0042533334
3	0xbdeae62e	-0.114696845
4	0xb8f49b80	-0.00011663791
5	0x3cd2761c	0.025691085
6	0x3dce9b8b	0.10088261
7	0xbd3502d7	-0.04419216
8	0xbd6f6394	-0.058444574
9	0xbe05298b	-0.13004129
10	0xbe082fbd	-0.1329946
11	0x3d7f0cfb	0.06226824

conv3.weight f4 [24, 12, 5, 5]
0	0xbe91fcd3	-0.28513202
1	0x3ccefb17	0.025266213
2	0xbd42f5ca	-0.047597684
3	0x3d938233	0.07202568
4	0x3e3cae35	0.1842583
5	0xbe87394c	-0.26410902
6	0xbd530115	-0.051514704
7	0xbe00403b	-0.12524502
8	0x3d0f8126	0.035035275
9	0x3e72d237	0.23713003
10	0xbe6f12ed	-0.23347063
11	0x3d466291	0.048433844
12	0xbde78e95	-0.11306492
13	0xbc9c35bd	-0.019068593
14	0x3d8f7647	0.070049815
15	0x3dabe484	0.08393195
16	0x3d4ef270	0.050524175
17	0xbd6afe71	-0.05737156
18	0x3c01e708	0.007928617
19	0x3def3c70	0.116814494
20	0x3d075995	0.033044416
21	0x3d40d399	0.047076795
22	0x3c18e29e	0.0093313735
23	0xbd35f95d	-0.044427264
24	0x3e246605	0.16054542
25	0xbe5bdb23	-0.21470313
26	0xbe00f670	-0.12594008
27	0x3d10ff2e	0.03539961
28	0xbe236740	-0.15957355
29	0x3d648471	0.05579037
30	0xbe070760	-0.13186407
31	0xbd01393f	-0.031548735
32	0x3da6644c	0.08124599
33	0xbcf00424	-0.02929885
34	0xbb69c101	-0.0035668018
35	0xbdc9433d	-0.09827278
36	0xbe389f1b	-0.18029444
37	0x3738f402	1.1024067e-05
38	0xbdd6e664	-0.10493162
39	0xbe56513d	-0.20929427
40	0xbdf27056	-0.11837833
41	0xbe8a00f2	-0.26953846
42	0x3cf049fe	0.029332157
43	0x3c39dca2	0.011344107
44	0xbd78cce3	-0.06074227
45	0xbd3e2b3e	-0.046427958
46	0xbd1830ad	-0.037155796
47	0x3dbeb7e1	0.09312416
48	0xbb5762ed	-0.003286536
49	0xbe342880	-0.17593575
50	0xbdd188c4	-0.10231164
51	0xbd187946	-0.03722503
52	0xbe377c4a	-0.17918506
53	0xbd21122b	-0.039323967
54	0xbdf50583	-0.11963942
55	0xbe1f17cc	-0.15536422
56	0xbdb4d8ae	-0.08830391
57	0xbe15601b	-0.14587443
58	0x3da3276e	0.07966505
59	0xbe81cda3	-0.253522
60	0xbe67ede2	-0.22649339
61	0xbe3dce1f	-0.1853566
62	0xbe479f40	-0.19494343
63	0xbe46f2d3	-0.19428568
64	0x3d9a9e46	0.075497195
65	0xbe2f5a15	-0.17124207
66	0xbe818c49	-0.25302342
67	0xbe31920f	-0.17340873
68	0xbd90bbb1	-0.07067049
69	0x3c0c071f	0.00854662
70	0xbda0d033	-0.07852211
71	0xbe5371c3	-0.20648865
72	0xbe3df481	-0.18550302
73	0x3defc5ff	0.11707687
74	0xbdb954eb	-0.090494
75	0x3c91ac45	0.01778234
76	0xbde959be	-0.1139407
77	0xbdfd6f1d	-0.12374709
78	0x3d8bfea0	0.06835675
79	0x3d83b8fa	0.06431766
80	0x3c80e2f5	0.015733222
81	0x3de6c5e3	0.11268213
82	0xbdbff2fe	-0.09372519
83	0xbdb5178c	-0.08842382
84	0xbe3d1be9	-0.18467678
85	0x3c71809c	0.0147401355
86	0x3d8b2786	0.06794648
87	0xbc5f75ca	-0.013638923
88	0xbddf56db	-0.10905238
89	0xbda44892	-0.08021654
90	0x3e32b119	0.1745037
91	0x3dc67764	0.09690741
92	0x3b0f5868	0.0021872763
93	0xbda92731	-0.08259428
94	0xbd72278d	-0.05911975
95	0xbdfbff3c	-0.123045415
96	0x3dc79852	0.0974585
97	0xbdfac34a	-0.1224428
98	0xbc5ca961	-0.013468117
99	0xbc9e6685	-0.019335994
100	0xbd830709	-0.06397826
101	0xbe403bc8	-0.18772805
102	0xbe7cbae9	-0.24680676
103	0xbd5d9d89	-0.054105315
104	0xbd3b241a	-0.045688726
105	0x3d45d449	0.048298154
106	0xbdba45a8	-0.09095317
107	0xbd90f9ac	-0.07078871
108	0x3d983c37	0.0743336
109	0x3da85c5a	0.0822074
110	0xbc008447	-0.007844037
111	0x3da73cec	0.08165917
112	0x3d26e633	0.04074688
113	0x3e264344	0.16236597
114	0x3e15c498	0.14625776
115	0x3dbc9fba	0.09210153
116	0x3d9acb8c	0.07558355
117	0xbe358ca2	-0.17729428
118	0xbc4d1dcf	-0.012519314
119	0xbdc02a21	-0.093830355
120	0x3dd4dffa	0.10394283
121	0xbcd666ce	-0.026172068
122	0xbe32cef1	-0.17461754
123	0xbd73d6ea	-0.05953113
124	0xbe38adaf	-0.18035005
125	0x3d870ba5	0.06594018
126	0x3e0d5fd5	0.13806088
127	0x3de0216c	0.10943875
128	0xbcb0da90	-0.021588594
129	0xbc8c953e	-0.017161008
130	0xbd172310	-0.036898673
131	0x3e4afa92	0.19822147
132	0x3e233d06	0.15941247
133	0x3dcca730	0.09992826
134	0xbd728539	-0.059209082
135	0xbc76f9bb	-0.015074189
136	0x3c224219	0.009903454
137	0xbd544158	-0.05182013
138	0xbde75e88	-0.11297327
139	0x3e0049a5	0.12528093
140	0x3e08fdfe	0.1337814
141	0xbd11dbca	-0.035609998
142	0xbe5399e0	-0.20664167
143	0xbe47611b	-0.19470637
144	0x3cb9affc	0.022666924
145	0x3d22a218	0.039705366
146	0x3d8e484a	0.06947382
147	0x3dc5b2d5	0.0965325
148	0x3d8055d7	0.06266373
149	0xbd329d68	-0.043607146
150	0x3d75444d	0.05987959
151	0x3dcd7d9c	0.10033724
152	0xbdf84435	-0.121223845
153	0xbd88ef79	-0.06686301
154	0xbe13654c	-0.1439411
155	0x3e4a2afc	0.1974296
156	0x3c394ab3	0.011309314
157	0xbe0364de	-0.12831447
158	0x3e24ea0e	0.1610491
159	0x3df5021d	0.11963294
160	0x3e21f38a	0.15815559
161	0xbde07cbf	-0.109612934
162	0xbe5693a5	-0.2095476
163	0x3e1ad0c1	0.15118696
164	0xbd50d16b	-0.050980967
165	0x3e3aee87	0.18255053
166	0x3dd1edba	0.10250421
167	0xbe0ca399	-0.13734283
168	0x3d3af719	0.045645807
169	0x3dfd4557	0.12366741
170	0x3d33ee67	0.04392853
171	0x3d260d3d	0.04053997
172	0xbdfae2eb	-0.122503124
173	0xbd4589f0	-0.04822725
174	0x3dd34204	0.10315326
175	0xbe363222	-0.17792562
176	0xbd09033e	-0.033450358
177	0x3d9101f5	0.070804514
178	0x3d56528d	0.05232482
179	0x3e35eb39	0.17765512
180	0xbe20632d	-0.15662833
181	0x3bf85fb5	0.0075797685
182	0x3d04f390	0.03245884
183	0xbbf96f24	-0.007612126
184	0xbe0fd9d5	-0.1404794
185	0xbc5ff7d9	-0.013669931
186	0x3daa7f51	0.08325065
187	0xbcfcfce0	-0.030882299
188	0xbbf883cf	-0.007584072
189	0xbdec45d7	-0.115367584
190	0xbdcaa26b	-0.0989426
191	0x3df8b2d8	0.12143487
192	0x3cb77aea	0.022397477
193	0x3c0a268d	0.008432043
194	0xbe228c72	-0.15873888
195	0x3c9c4579	0.019076096
196	0xbdc2968a	-0.09501369
197	0xbda70b46	-0.08156447
198	0x3e11dcb0	0.14244342
199	0xbdffc24f	-0.12488233
200	0x3eabccd0	0.33554697
201	0x3e42e229	0.19031586
202	0x3d929644	0.07157567
203	0xbda28062	-0.07934643
204	0x3e970e47	0.2950308
205	0x3e4167ba	0.18887225
206	0x3dddf567	0.108378224
207	0xbd146ace	-0.03623467
208	0xbda18625	-0.07886914
209	0x3d274e24	0.040846005
210	0x3be763f3	0.0070614754
211	0xbdb50efd	-0.088407494
212	0xbe6e31ba	-0.23261157
213	0x3d698304	0.05700971
214	0x3def46a6	0.11683397
215	0x3e5d0a5a	0.2158598
216	0xbc1d39de	-0.009596316
217	0xbdc42ac4	-0.095784694
218	0xbc7ff977	-0.015623442
219	0x3d0ccaec	0.03437321
220	0x3e01aab4	0.12662774
221	0x3dac7375	0.08420459
222	0x3d2f6028	0.04281631
223	0x3cad5253	0.02115742
224	0x3e4950b5	0.19659694
225	0xbd6aa34f	-0.05728465
226	0x3d514dc0	0.05109954
227	0xbc821afd	-0.01588201
228	0xbd1e6371	-0.038669053
229	0xbbdccde4	-0.0067384113
230	0x3cd04125	0.025421688
231	0x3c2ebb9b	0.010664846
232	0x3c939e79	0.018019902
233	0xbdb9df8e	-0.09075843
234	0x3d0de8e0	0.034645915
235	0x3d105504	0.035237327
236	0x3be56285	0.00700027
237	0x3ba51b19	0.0050386307
238	0xbc8b2b33	-0.016988372
239	0x3ca5cb52	0.020238552
240	0xbb476794	-0.0030426728
241	0x3d7c732e	0.06163328
242	0x3ddb2a2d	0.10701404
243	0x3cc69d14	0.024244823
244	0x3ac1aa1f	0.0014775431
245	0x3d89f547	0.06736236
246	0xbc390a02	-0.01129389
247	0xbd9c268a	-0.07624538
248	0x3ab60afe	0.0013888774
249	0xbd6bc39b	-0.05755959
250	0x3e8e543f	0.2779865
251	0x3e4057c7	0.18783484
252	0x3d9d7159	0.07687635
253	0x3e392b2f	0.1808288
254	0xbcfb1a62	-0.030652229
255	0x3e703df1	0.23461129

conv3.bias f4 [24]
0	0x3bc02e1b	0.005864871
1	0xbdd9991b	-0.10624906
2	0x3dc50e6a	0.0962189
3	0xbdf1a628	-0.1179927
4	0xbdca1367	-0.09866982
5	0xbce91183	-0.028450733
6	0xbc50b739	-0.012738996
7	0xbd8d1c38	-0.06890148
8	0xbd48bbdb	-0.049007278
9	0xbd89df61	-0.06732059
10	0xbd7e9e52	-0.062162705
11	0xbd99a873	-0.07502832
12	0xbc2fcb51	-0.010729627
13	0xbda01f78	-0.07818502
14	0x3d7dc207	0.061952617
15	0x3bb9d92a	0.00567164
16	0xbd744606	-0.059637092
17	0xbd1b776f	-0.037955698
18	0x3ddf4217	0.109012775
19	0xbdc601d7	-0.0966832
20	0x3da10e85	0.078640975
21	0xbdafc5f8	-0.085826814
22	0xbdfbb30e	-0.12290011
23	0xbd41a98d	-0.047280837

fc1.weight f4 [200, 384]
0	0x3c8b318a	0.016991396
1	0xbd6e9799	-0.058250044
2	0x3c6e2855	0.014535983
3	0xbcb321c7	-0.021866692
4	0x3cf8f7ce	0.0303916
5	0x3b08086c	0.0020756973
6	0xbd5521f7	-0.052034345
7	0xbc6b1568	-0.014348365
8	0xbcf5965e	-0.029978927
9	0x3d0dbb36	0.034602366
10	0xbd57ad5f	-0.052655574
11	0x3c451a60	0.012030214
12	0xbd4e8a51	-0.050424878
13	0x3d24b386	0.04021027
14	0xbd6ddf63	-0.058074366
15	0xbd4d9b0f	-0.050196704
16	0x3b76c36d	0.0037653104
17	0x3cd281e9	0.025696712
18	0x3cc10697	0.023562713
19	0x3d3e90ef	0.04652494
20	0xbca56623	-0.020190304
21	0x3d198b40	0.037486315
22	0x3c80e3c7	0.015733613
23	0xbc4db14c	-0.012554478
24	0xbd1e6860	-0.03867376
25	0xbd23ec75	-0.040020425
26	0x3d461d48	0.04836777
27	0xbd37a5b1	-0.04483575
28	0x3d1af575	0.037831742
29	0xbd2077e4	-0.039176837
30	0xbc323bd5	-0.010878523
31	0xbc2266e9	-0.009912231
32	0xbd40206f	-0.04690593
33	0xbc8c4beb	-0.017126044
34	0x3be472f3	0.006971711
35	0xbcd01734	-0.02540169
36	0x3cf6da98	0.03013353
37	0x3b9dc76d	0.004815033
38	0x3d177381	0.036975387
39	0xbd2274dc	-0.039662227
40	0x3d053783	0.032523643
41	0x3cb75096	0.022377294
42	0x3c17039e	0.009217171
43	0xbd119edb	-0.035551887
44	0xbb6698fc	-0.00351864
45	0xbcd5e2a7	-0.026109053
46	0xbcb2f7b8	-0.021846637
47	0xbbc88f79	-0.006120619
48	0xbd352ec9	-0.04423407
49	0xbd58e712	-0.05295474
50	0xbc716eec	-0.0147359185
51	0xbcd89e89	-0.026442783
52	0x3cffa097	0.031204505
53	0xbba4d7c8	-0.005030606
54	0xbcfb43fb	-0.030672064
55	0x3d0ce62d	0.0343992
56	0xbd6df008	-0.05809024
57	0xbca9dc10	-0.020734817
58	0xbc651531	-0.013982103
59	0x3d018ef9	0.03163049
60	0x3d1b0c69	0.037853632
61	0xbc9169e0	-0.01775068
62	0x3d0f5360	0.034991622
63	0xbc38038d	-0.011231315
64	0x3d12b0b0	0.035813034
65	0x3d0a6771	0.033790056
66	0x3c30d64d	0.010793281
67	0xbd55aa22	-0.052164204
68	0xbc7ddced	-0.015494567
69	0xbcd70e27	-0.026251866
70	0xbd27f13a	-0.041001536
71	0x3c77a2d0	0.015114501
72	0x3b789b22	0.0037934263
73	0xbc9c990d	-0.019115949
74	0xbadc134d	-0.001679042
75	0xbd077478	-0.033070058
76	0xbd4ec653	-0.050482105
77	0x3d105ad0	0.035242856
78	0xbd3b4803	-0.045722973
79	0xbd0135f8	-0.03154561
80	0x3d00ae30	0.03141612
81	0x3c81ad5e	0.015829738
82	0xbcbbc507	-0.022921098
83	0xbcd4b355	-0.025964418
84	0x3c338d43	0.010958972
85	0xbd1de426	-0.038547657
86	0xbd5febce	-0.05466824
87	0xbce60d35	-0.02808247
88	0xbb627619	-0.0034555255
89	0xbd301339	-0.042987082
90	0x3c9462e1	0.018113555
91	0xbd4ba0c6	-0.049713872
92	0xbcdd5a10	-0.027020484
93	0xbd524e57	-0.051344242
94	0xb956d020	-0.00020486163
95	0xbd2b1b80	-0.041774273
96	0x3ce06a0e	0.02739432
97	0x3c55e04c	0.013053965
98	0xbc8ccc76	-0.017187338
99	0xbcb8c1a4	-0.022553273
100	0x3cab63b7	0.020921571
101	0xbd064443	-0.032779943
102	0x3d09a89f	0.033608075
103	0xbc3d517d	-0.011555073
104	0xbb73a07d	-0.0037174516
105	0x3d1aed1d	0.037823785
106	0x3bf3e1a6	0.007442671
107	0xbc998d1c	-0.018744044
108	0xbbfcef5d	-0.007718964
109	0xbcc809ac	-0.024418674
110	0xbd222b28	-0.03959194
111	0x3c074268	0.008255579
112	0x3cf0da72	0.029401038
113	0x3cd4951e	0.02595001
114	0xbce80f19	-0.028327512
115	0x3d1c0b32	0.038096614
116	0xba117335	-0.0005548478
117	0x3c8db774	0.017299391
118	0x3cf93cca	0.030424494
119	0x3d140fa5	0.036147732
120	0xbc6df1ff	-0.014523028
121	0xbd3ca49e	-0.04605543
122	0x3d21c7ef	0.039497312
123	0xbcded5ef	-0.02720162
124	0xbcad67de	-0.021167692
125	0xbb4adf9f	-0.0030956042
126	0xbc2d5269	-0.01057873
127	0x3cd713ad	0.0262545
128	0x3c39c6b5	0.011338879
129	0xbd3817f3	-0.044944715
130	0xbd451d4c	-0.048123643
131	0x3ca08e60	0.01959914
132	0x3d312a73	0.043253373
133	0x3c9f44a0	0.019441903
134	0xbb535a2b	-0.003224979
135	0xbc927545	-0.017878184
136	0x3d09da3a	0.033655383
137	0xbc13e392	-0.009026425
138	0xbca87526	-0.020563673
139	0xbc8a91e5	-0.016915271
140	0x3c870116	0.01648001
141	0x3c76a647	0.015054292
142	0x3ce6e159	0.028183626
143	0x3ceccff8	0.028907761
144	0xbd55ab41	-0.052165274
145	0x3c699fd4	0.014259297
146	0xbcf8df62	-0.030379955
147	0xbd4852b0	-0.048906982
148	0x3c6c3e62	0.01441917
149	0xbd3b7482	-0.045765407
150	0x3cf26012	0.029586826
151	0xbcf3c8ba	-0.0297588
152	0x3bcf0b4e	0.0063184863
153	0xbbd0d134	-0.006372595
154	0x3bec1c8f	0.007205553
155	0xbd474132	-0.04864616
156	0x3cdc5806	0.026897442
157	0x3c2e4fa6	0.010639107
158	0xbd47bee6	-0.04876604
159	0xbd16cce1	-0.03681648
160	0x3d3ff9b6	0.046869002
161	0xbcc3ecca	-0.02391662
162	0xbcda1de8	-0.026625589
163	0x3d03108f	0.031998213
164	0xbd2c31a2	-0.04203952
165	0x3d107e02	0.03527642
166	0xbcd4fb45	-0.02599872
167	0x3cd8ef13	0.026481187
168	0x3cbd46a6	0.023104977
169	0x3d439941	0.047753576
170	0x3d11d686	0.035604976
171	0x3d0d984e	0.034569077
172	0x3bd44c84	0.006478848
173	0x3caa8c31	0.020818802
174	0xbcbfd8b4	-0.023418762
175	0x3d2ae5e9	0.041723166
176	0xbca7d706	-0.020488273
177	0xbcfc4e27	-0.030798985
178	0x3c790e0d	0.015201104
179	0xbd096990	-0.033547938
180	0x3c819053	0.01581589
181	0x3ccf33e8	0.025293306
182	0xbccc0eaa	-0.024909336
183	0xbd344361	-0.04400957
184	0xbd022c64	-0.031780615
185	0xbc1a61ad	-0.009422702
186	0x3d2bd26f	0.041948732
187	0xbb3327f1	-0.002733704
188	0xbbb46068	-0.0055046566
189	0x3c05dd69	0.008170464
190	0x3ce4ae0b	0.027915021
191	0xbc71448d	-0.014725816
192	0xbc375002	-0.011188509
193	0xbc9d65e9	-0.019213634
194	0x3c8b4265	0.016999433
195	0xbd2a4f64	-0.04157962
196	0x3c156839	0.009119087
197	0xbb2ea76d	-0.0026650087
198	0x3ceb7fc7	0.028747452
199	0xbd7714dc	-0.060322627
200	0xbcc2b5e0	-0.023768365
201	0xbc366867	-0.01113329
202	0x3c8c1bca	0.017103095
203	0xbb8f5d79	-0.0043751565
204	0xbd06e08d	-0.032928992
205	0x3cd9e227	0.026597096
206	0xbd472f77	-0.04862925
207	0xbd614e15	-0.055006105
208	0x3d2640be	0.040589087
209	0xbcc17088	-0.02361323
210	0x3d42d12b	0.04756276
211	0x3c148b01	0.009066344
212	0xbc9968a5	-0.018726656
213	0x3d45d85a	0.048302032
214	0xbce7b7db	-0.028285911
215	0xbc525362	-0.012837263
216	0xbcd86a58	-0.026417896
217	0x3d336a21	0.043802384
218	0x3ccb69ce	0.024830725
219	0xbd315d03	-0.043301594
220	0x3c284713	0.010270852
221	0xbd27b47c	-0.040943608
222	0xbc7a6cc3	-0.01528472
223	0x3d2bde1a	0.04195986
224	0xbd7638b8	-0.060112685
225	0x3c8347f4	0.01602552
226	0xbd509cff	-0.050930973
227	0xbd375d88	-0.044766933
228	0xbc56c344	-0.013108078
229	0x3c347dfc	0.011016365
230	0x3c903ee0	0.017608106
231	0x3bb2b60f	0.005453832
232	0x3c6e0776	0.014528146
233	0xbd1fe101	-0.03903294
234	0xbd10faa2	-0.035395272
235	0x3cd2c242	0.025727395
236	0xbd2a7aa9	-0.041620884
237	0xbccceba9	-0.025014715
238	0x3cb609e6	0.022221517
239	0xbd1d9289	-0.038469825
240	0xbce34264	-0.027741618
241	0x3d2a00b6	0.041504584
242	0xbc497ce7	-0.012297845
243	0xba176f6d	-0.00057767966
244	0x3cdcfaff	0.026975153
245	0x3cffb420	0.03121382
246	0x3c4c6040	0.01247412
247	0x3b579d31	0.003290009
248	0xbd62cbbb	-0.055370074
249	0x3c9b9c59	0.01899545
250	0xbd135f97	-0.035979833
251	0x3b412c99	0.0029476045
252	0xbc901aa9	-0.017590838
253	0x3d0193c0	0.031635046
254	0x3af812ec	0.0018926538
255	0xbd1747d2	-0.036933728

fc1.bias f4 [200]
0	0xbd3b0b7e	-0.045665257
1	0x3c31a77b	0.010843153
2	0x3c38438f	0.011246576
3	0x3c937266	0.017998885
4	0x3da5e4cd	0.08100281
5	0x3cc5b3e5	0.024133632
6	0x3d2828d9	0.04105458
7	0xbd3b2c88	-0.045696765
8	0xbd3e9e12	-0.046537466
9	0x3d67d5d8	0.05660042
10	0x3d267806	0.040641807
11	0xbca2aa1c	-0.019856505
12	0xb98e04e2	-0.0002708799
13	0x3d2b75c7	0.041860368
14	0x3c2176f8	0.0098550245
15	0xbce28532	-0.027651403
16	0xbd7d4116	-0.06182965
17	0xbcd77fd6	-0.026306074
18	0xbd1cd71c	-0.03829108
19	0xbd2b866d	-0.041876245
20	0x3d82813c	0.06372306
21	0xbb127e85	-0.0022353244
22	0x3d9d733f	0.07687997
23	0xbd1fc43f	-0.039005514
24	0xbdad1d32	-0.08452834
25	0x3d017b2a	0.0316116
26	0xbd66757d	-0.05626439
27	0x3d9a5fae	0.07537781
28	0x3d05fdfc	0.03271292
29	0x3d2c706d	0.042099405
30	0x3adbee3a	0.0016779371
31	0xbd1d1974	-0.038354352
32	0xbcee7ea2	-0.029113118
33	0xbd3240e9	-0.043518934
34	0xbc867c1b	-0.0164166
35	0xbd5dc6c3	-0.054144632
36	0xbd3ea1c6	-0.046540998
37	0xbcdbc1dd	-0.02682584
38	0xbcb9f32a	-0.022698957
39	0x3c26e792	0.010187047
40	0x3c24339e	0.010022072
41	0x3d2c4f3c	0.04206775
42	0xbd9e71e6	-0.07736568
43	0x3d7c9975	0.061669786
44	0xbd594ace	-0.053049855
45	0xbce55261	-0.027993383
46	0x3d8dcb91	0.06923593
47	0xbd8bd1b6	-0.068271086
48	0xbd43c165	-0.047791857
49	0x3bdf797a	0.006819901
50	0xbd7de124	-0.06198229
51	0x3d71307c	0.05888413
52	0xbd3194a6	-0.043354653
53	0xba500ee3	-0.00079367886
54	0xbce5827a	-0.028016318
55	0xbd9ee9d0	-0.0775944
56	0x3d1d7a13	0.038446497
57	0xbd0d649b	-0.034519773
58	0xbbc1c7df	-0.005913719
59	0xbb401020	-0.0029306486
60	0x3d249236	0.0401785
61	0xbd8c9b36	-0.06865542
62	0xbd2ef169	-0.042710695
63	0x3d57954b	0.05263261
64	0xbd197c0f	-0.037471827
65	0x3d3d84e5	0.046269316
66	0xbce23bca	-0.0276164
67	0xbd5da3f4	-0.054111436
68	0xbbb3af1f	-0.0054835225
69	0x3d4dcb2e	0.050242595
70	0x3dc1d1f3	0.09463873
71	0xbcc84dcc	-0.024451159
72	0x3c142289	0.009041437
73	0xbcacbe7f	-0.02108693
74	0x3d45ddc6	0.048307203
75	0x3d98cd96	0.074610874
76	0xbd02555a	-0.03181968
77	0x3d8020ea	0.06256278
78	0xbd3311b5	-0.04371806
79	0x3bedaf0b	0.0072535328
80	0xbd1ff264	-0.03904952
81	0xbb9ae8d5	-0.004727463
82	0x3ca8cdcd	0.020605946
83	0xbd61266f	-0.054968294
84	0x3e4b5960	0.19858313
85	0xbb6c81a9	-0.0036088026
86	0x3d1085a9	0.03528372
87	0x3d2ddfd7	0.0424498
88	0xbd56d23c	-0.05244659
89	0x3dabbe00	0.08385849
90	0xbc6edaa7	-0.014578498
91	0x3d5218d0	0.051293194
92	0x3c884f2f	0.01663932
93	0x3d32a01c	0.043609723
94	0xbd2d5d39	-0.042325232
95	0xbd907aa4	-0.07054642
96	0x3d8dbe7c	0.06921098
97	0xbc974b17	-0.018468423
98	0x3d6944dc	0.056950435
99	0x3d88c756	0.06678645
100	0x3d1a681f	0.037696954
101	0xbcd85348	-0.0264069
102	0x3d5c5241	0.05378938
103	0xbc205961	-0.009786935
104	0x3d1e3e2a	0.038633503
105	0x3d1c71b1	0.038194362
106	0xbd4578b5	-0.04821082
107	0x3cd420d6	0.025894564
108	0xbd057b3a	-0.03258822
109	0xbcbc9329	-0.02301939
110	0xbab411e5	-0.0013738243
111	0xbd96ad5c	-0.073572844
112	0xbd786c4e	-0.060650162
113	0xbd04afd4	-0.032394245
114	0xbd503e66	-0.050840758
115	0x3d865bda	0.06560488
116	0xbc94002e	-0.018066492
117	0x3bc936ae	0.0061405515
118	0x3c430d99	0.011905097
119	0xbd40b9ab	-0.047052067
120	0xbd0e1238	-0.034685344
121	0x3b9d49f7	0.004800077
122	0xbd14709b	-0.0362402
123	0x3daa1394	0.083045155
124	0x3d6508de	0.05591666
125	0x3ca38295	0.019959727
126	0xbd4721c1	-0.048616175
127	0xbcc6fa80	-0.02428937
128	0xbccdcb6f	-0.025121419
129	0xbca0ad7b	-0.019613972
130	0xbd2fd23e	-0.042925112
131	0x3cb4268d	0.021991039
132	0xbad0101c	-0.0015873942
133	0x3dbd0f6e	0.092314586
134	0xbbbf0710	-0.0058296993
135	0xbd44b3f1	-0.048023168
136	0xbd5c9a30	-0.053857982
137	0xbb093065	-0.0020933386
138	0x3d5605ac	0.052251503
139	0x3e0105db	0.1259989
140	0xbd1d4cc3	-0.038403284
141	0xbbc1d640	-0.005915433
142	0x3d10d2f9	0.03535745
143	0x3d760e81	0.060072426
144	0xbbd4675d	-0.0064820484
145	0xbbe87469	-0.0070939553
146	0x3d4d6d53	0.050153088
147	0xbbcc08de	-0.006226643
148	0xbd045175	-0.032304246
149	0x3c6ff9c5	0.014646952
150	0x3d365d9a	0.04452286
151	0x3d3b2230	0.0456869
152	0x3d89d551	0.0673014
153	0x3cb3bf85	0.02194191
154	0xbcbef402	-0.023309711
155	0xbd5bedbb	-0.053693514
156	0x3cf80cd2	0.03027955
157	0x3d7cdb86	0.06173279
158	0xbdb58847	-0.088638835
159	0xbcaa4a21	-0.0207873
160	0xbd8dd430	-0.06925237
161	0xbcc41b7a	-0.023938883
162	0xbd2c9979	-0.04213855
163	0x3d71c833	0.059028815
164	0x3d988def	0.07448947
165	0xbd257ae2	-0.040400393
166	0xbd3f65c0	-0.046727896
167	0x3ce3ff3a	0.027831662
168	0x3d17afe7	0.037032988
169	0xb9de76d0	-0.00042431662
170	0x3c8a4057	0.016876383
171	0x3c63b3c4	0.01389784
172	0x3d5eda0b	0.05440716
173	0x3c41b68f	0.0118233105
174	0xbd982b23	-0.07430103
175	0xbd48b5d9	-0.04900155
176	0xbd61256d	-0.054967333
177	0x3c041592	0.008061783
178	0xbd2dec64	-0.042461768
179	0xbd4c4fa6	-0.049880646
180	0x3cd52922	0.02602059
181	0x3b8d07ed	0.0043039233
182	0xbc6abce8	-0.014327265
183	0xbd68de3f	-0.056852575
184	0xbd428b11	-0.047495905
185	0x3d1d1f18	0.03835973
186	0xbca1a7d5	-0.019733349
187	0xbd20bcb5	-0.039242465
188	0x3cdc23b1	0.026872488
189	0xbc8c63d1	-0.01713744
190	0xbdb0740f	-0.086158864
191	0xbd80c4a7	-0.062875085
192	0xbb4a2df5	-0.0030850146
193	0xbd9565d7	-0.07294815
194	0x3d497ebd	0.049193133
195	0xbb9a1bf7	-0.0047030407
196	0xbaefad62	-0.0018285925
197	0x3cbed9d8	0.023297235
198	0xbc05470e	-0.008134617
199	0xbcc7d69a	-0.024394322

fc2.weight f4 [20, 200]
0	0xbc114df4	-0.008868683
1	0x3d4544af	0.048161205
2	0xbe49bc30	-0.19700694
3	0x3e319279	0.17341031
4	0xbeedb0b5	-0.4642388
5	0xbe0d2021	-0.13781787
6	0xbe142a07	-0.14469157
7	0x3c895f4d	0.016769076
8	0x3d4b1491	0.04958016
9	0xbe9d6df1	-0.3074794
10	0x3dc181a4	0.09448555
11	0x3ab8e106	0.0014105148
12	0xbd96cb32	-0.07362975
13	0xbe857045	-0.26062217
14	0x3e38e6c6	0.18056783
15	0x3d8c7486	0.068581626
16	0xbd8e69c0	-0.06953764
17	0xbcf3b021	-0.02974707
18	0xbc760124	-0.01501492
19	0xbec75f30	-0.3893981
20	0xbe00dc59	-0.12584056
21	0x3e975efd	0.29564658
22	0xbdc16443	-0.094429515
23	0x3c010824	0.007875476
24	0x3d693081	0.056931023
25	0xbe1e18ee	-0.15439197
26	0x3e447a10	0.19187188
27	0xbece3d0a	-0.40280944
28	0x3daea5d1	0.08527721
29	0xbecb3329	-0.3968747
30	0x3dafdc06	0.08586888
31	0x3d3f5d63	0.04671992
32	0xbd44f7a0	-0.048087716
33	0xbee3be5e	-0.44481176
34	0x3e97cbd5	0.296477
35	0xbc821942	-0.015881184
36	0x3d218c86	0.039440654
37	0x3ef2fe9e	0.47459882
38	0x3eec90de	0.46204275
39	0xbc2e56a3	-0.010640773
40	0x3dd17963	0.10228231
41	0xbe1023b4	-0.1407612
42	0x3d353b42	0.044245966
43	0xbcefc1a5	-0.029267142
44	0x3d8087e6	0.062759206
45	0x3d602d84	0.054730907
46	0xbec62f23	-0.38707837
47	0x3cbbe75d	0.022937471
48	0x3bdeadac	0.0067956056
49	0xbbdfd783	-0.006831111
50	0x3e4b2faa	0.19842401
51	0xbf0efbd2	-0.55853
52	0xbc9706cc	-0.018435858
53	0x3d335e6c	0.04379122
54	0x3da0b345	0.07846693
55	0xbf5a8f65	-0.8537505
56	0xbdffa2b8	-0.12482208
57	0xbd409be1	-0.047023658
58	0x3eab4984	0.33454525
59	0x3c439de2	0.011939498
60	0xbe91e835	-0.28497472
61	0xbd49bbe6	-0.04925146
62	0x3eaf0ede	0.3419103
63	0x3c24283c	0.010019358
64	0xbe4b00a8	-0.19824469
65	0x3d9260de	0.07147382
66	0xbd093bb6	-0.03350421
67	0xbc3cad0f	-0.01151587
68	0x3e194062	0.14965966
69	0x3d9ae024	0.07562283
70	0x3d4e3d7a	0.050351597
71	0x3d983c40	0.07433367
72	0xbf1bc527	-0.60847706
73	0x3ce9d809	0.028545396
74	0x3c140654	0.009034712
75	0xbe91a911	-0.284493
76	0x3bb307e4	0.005463587
77	0x3c019140	0.007908165
78	0x3cdfe6ec	0.027331792
79	0xbebd1336	-0.3692872
80	0xbcb00a95	-0.02148942
81	0x3deadba3	0.11467674
82	0xbeb2b7ce	-0.34905857
83	0x3cd9957d	0.02656054
84	0x3f0b77f5	0.54479915
85	0xbe54c331	-0.20777585
86	0xbda966bc	-0.08271548
87	0xbe78b527	-0.24287854
88	0x3bb048f9	0.005379793
89	0x3d5e05d6	0.054204784
90	0xbd22f15a	-0.039780952
91	0x3dc86a73	0.097859286
92	0xbedb7f8d	-0.4287075
93	0x3d942f0a	0.072355345
94	0x3d9372c6	0.07199626
95	0x3d2fa6cd	0.042883683
96	0xbecbb798	-0.39788508
97	0x3ed173b9	0.40908602
98	0x3dab1b4c	0.08354816
99	0xbeb64258	-0.3559749
100	0x3d3bd267	0.045854952
101	0xbd836de6	-0.06417446
102	0xbda0b424	-0.07846859
103	0xbe4178b4	-0.18893701
104	0x3e509cdd	0.20372339
105	0xbb061dc6	-0.0020464524
106	0x3bff49ab	0.0077907643
107	0xbedcae29	-0.43101624
108	0x3b01fe72	0.00198355
109	0x3acf20c7	0.0015802615
110	0x3e75df14	0.24010879
111	0x3d826bbc	0.06368205
112	0x3da5bea5	0.08093003
113	0x3d0965c0	0.033544302
114	0xba5d709a	-0.000844726
115	0x3eb08202	0.34474188
116	0x3d7e36fa	0.06206415
117	0x3ca0e5f5	0.019640902
118	0x3e37ad35	0.17937167
119	0xbd75dc7f	-0.060024735
120	0xbb0eeb10	-0.0021807589
121	0x3dc06d3c	0.09395835
122	0xbd3c5c83	-0.045986664
123	0xbecf9769	-0.40545204
124	0xbea2bb47	-0.31783506
125	0x3dcb9e25	0.09942273
126	0xbe934eb8	-0.28770995
127	0xbd32f385	-0.04368927
128	0x3cec2b3e	0.028829213
129	0xbea77b09	-0.32711056
130	0xbc5afa29	-0.013365307
131	0x3e70a286	0.23499498
132	0x3dafe5f0	0.08588779
133	0xbf0c3cf1	-0.5478049
134	0xbeb34a74	-0.3501774
135	0xbca2461a	-0.019808818
136	0x3d1a99c4	0.0377443
137	0x3d786b82	0.060649402
138	0xbe027000	-0.12738037
139	0x3bc97684	0.0061481614
140	0x3d148934	0.03626366
141	0xbec8733d	-0.3915042
142	0xbe04c02e	-0.12963936
143	0xbe3814b4	-0.17976648
144	0xbd1b3ce6	-0.037899874
145	0x3ea22188	0.31666207
146	0x3dd43246	0.103611514
147	0xbf04f94f	-0.51942915
148	0x3e8575fd	0.2606658
149	0xbccf7c47	-0.025327815
150	0x3e205d77	0.15660654
151	0xbed0aea6	-0.40758246
152	0x3cafa1e9	0.02143951
153	0xbe871857	-0.26385757
154	0x3ead9d27	0.3390896
155	0xbb9c5eab	-0.0047720275
156	0xbe9e6482	-0.30936056
157	0xbe0fad2a	-0.140309
158	0x3d4a5bd0	0.049403965
159	0x3e7be493	0.24598913
160	0x3c013e68	0.007888414
161	0xbdde7c7d	-0.10863588
162	0xbd20325d	-0.03911053
163	0x3ddd0e6c	0.107937664
164	0x3e74b77a	0.23898116
165	0xbbaf5025	-0.00535013
166	0x3d2056bf	0.039145228
167	0xbc71ee1e	-0.014766244
168	0xbe680d07	-0.2266122
169	0x3e479d51	0.19493605
170	0xbec8dcb1	-0.39230874
171	0x3d611d1e	0.05495941
172	0x3dbe5b5b	0.092947684
173	0x3d3459e0	0.044031024
174	0x3c391060	0.011295408
175	0xbdaad528	-0.083414376
176	0xbc016297	-0.007897041
177	0x3e66f71e	0.22555205
178	0xbc8e0f1c	-0.01734119
179	0x3e8ca069	0.27466133
180	0xbe446634	-0.19179612
181	0xbe620f30	-0.22076106
182	0x3c258373	0.010102141
183	0x3c943823	0.018093174
184	0x3d089eb1	0.033354465
185	0x3dbfca7d	0.093647934
186	0x3bcfb3b8	0.006338563
187	0x3d3f3cb7	0.04668876
188	0xbe063eca	-0.1310989
189	0xbcb52359	-0.022111582
190	0x3e40aab7	0.18815123
191	0xbc8d6244	-0.01725877
192	0x3e8c9514	0.27457488
193	0xbc9a4884	-0.018833406
194	0xbe181072	-0.14850023
195	0xbf199452	-0.59991944
196	0x3eb53c58	0.353976
197	0xbe4bb285	-0.19892319
198	0x3e90dfe1	0.28295806
199	0xbd353fca	-0.044250287
200	0xbc8989bf	-0.016789315
201	0xbd5b9dd7	-0.053617325
202	0x3d1047fe	0.035224907
203	0x3cfdb903	0.03097201
204	0x3c47d148	0.012195893
205	0xbcb1ff0d	-0.021728063
206	0x3d1de81f	0.038551446
207	0xbd2aa8a8	-0.04166475
208	0xbd571c8d	-0.052517463
209	0x3cfd9c84	0.030958422
210	0xbd66e315	-0.056368906
211	0xbba8c8d6	-0.0051508946
212	0xbd8c6af9	-0.06856341
213	0xbd522e07	-0.051313426
214	0xbc3e96b8	-0.011632614
215	0x3d028a3b	0.031870108
216	0x3d47d48e	0.048786692
217	0x3cecccec	0.028906308
218	0xbc16d1df	-0.009205311
219	0x3cdd36e5	0.027003715
220	0x3cd64fdc	0.026161127
221	0xbcc94977	-0.024571164
222	0x39cb20fb	0.0003874375
223	0xbd590430	-0.05298251
224	0xbcf1d847	-0.029522074
225	0xbd7f451e	-0.062321775
226	0xbd6603b4	-0.056155875
227	0xbd242422	-0.04007352
228	0x3bb322f2	0.0054668123
229	0xbd2ddd21	-0.042447213
230	0x3d88f55f	0.06687426
231	0x3d8ff8e7	0.07029896
232	0xbd3b4d54	-0.045728043
233	0xbd84a3e0	-0.06476569
234	0xbd5de6e9	-0.05417529
235	0xbd47e88a	-0.04880575
236	0xbc8c27a5	-0.017108748
237	0x3d59fc5b	0.05321918
238	0x3d1093ed	0.035297323
239	0xbd112d2e	-0.035443477
240	0xbc67e2ed	-0.014153224
241	0xbc08b680	-0.008344293
242	0x3d3bb882	0.045830257
243	0x3af713c8	0.00188505
244	0x3d556633	0.052099418
245	0x3d5b40f0	0.053528726
246	0xbcfd199d	-0.030896002
247	0x3d63e127	0.055634644
248	0x3d24454e	0.040105157
249	0xbac42633	-0.0014964998
250	0x3ccdb900	0.025112629
251	0xbca446b3	-0.020053243
252	0xbd7a6f89	-0.061141524
253	0x3bc137ad	0.0058965296
254	0xbd58d194	-0.052934244
255	0x3d59adcc	0.05314426

fc2.bias f4 [20]
0	0x3c90ee09	0.017691629
1	0xbd6d985c	-0.05800663
2	0xbd7b8bd8	-0.061412662
3	0x3a184f61	0.0005810168
4	0xbd37cca2	-0.044872887
5	0x3cd1ef18	0.025626704
6	0x3d8eeb67	0.06978493
7	0x3d188848	0.037239343
8	0x3da74023	0.0816653
9	0x3d2a2e13	0.041547846
10	0x3bb9a2fb	0.0056651807
11	0x3d54a199	0.051911924
12	0x3d2053c6	0.039142393
13	0xbc8541a5	-0.016266653
14	0xbd169480	-0.036762714
15	0x3da93700	0.082624435
16	0xbd25e96c	-0.04050581
17	0xbda38e01	-0.079860695
18	0x3c21dda1	0.009879501
19	0x3da4faf0	0.08055675

fc3.weight f4 [2, 20]
0	0x3f012504	0.50447106
1	0xbe1e09b1	-0.15433384
2	0xba81d6f5	-0.0009905981
3	0xbf1f30b8	-0.62183714
4	0xbe07e051	-0.13269164
5	0xbec940a8	-0.3930714
6	0x3ee0bd6d	0.4389452
7	0xbe4bdfb4	-0.19909555
8	0xbf020d54	-0.5080159
9	0x3f0ce9e2	0.55044377
10	0xbda3f2fa	-0.080053285
11	0x3f0ae73e	0.542591
12	0x3f02277f	0.50841516
13	0x3e19946d	0.14998026
14	0xbe28b156	-0.16473898
15	0xbf0cfa85	-0.5506976
16	0xbdf06d16	-0.117395565
17	0x3d76039e	0.060062043
18	0xbf1ebfe8	-0.62011576
19	0x3f19c3b8	0.6006427
20	0xbee7349a	-0.4515732
21	0x3e29c095	0.1657737
22	0xbdefeabd	-0.11714695
23	0x3ebd7c1a	0.37008744
24	0xbe0cb3d1	-0.1374047
25	0x3f462520	0.774004
26	0xbf04c113	-0.5185711
27	0x3e1961da	0.14978734
28	0x3eea5284	0.4576608
29	0xbeade8e0	-0.33966732
30	0x3cd7c2fe	0.026338097
31	0xbed1e366	-0.40993804
32	0xbeffb2b4	-0.49941027
33	0xbd880c0b	-0.06642922
34	0x3d691c3b	0.05691169
35	0x3f209a3b	0.62735337
36	0x3ca6313c	0.020287149
37	0xbd455d09	-0.04818443
38	0x3f188b05	0.59587127
39	0xbea6ba58	-0.32564044

fc3.bias f4 [2]
0	0x3d8e13b4	0.06937352
1	0x3d2b4e2b	0.041822594
