saves/model03.pth (torch, 365697 bytes, 12 tensors)

conv1.weight f4 [6, 3, 5, 5]
-0.094362065 0.054565925 -0.14626239 -0.14815174 0.009620017 0.055010326 0.015276375 -0.09077821
-0.14040503 -0.12407895 -0.0155868735 0.10414726 -0.1828356 -0.18400168 -0.1019873 0.13461211
0.1170984 -0.19010523 -0.118577436 -0.0859392 -0.10384185 -0.030549703 -0.16855371 -0.16857344
-0.12168783 -0.04460274 0.15162748 0.101189926 0.03637268 -0.04095787 -0.018761909 0.09719146
0.08850345 -0.03628089 0.008938932 0.01139813 0.15016635 0.046167478 -0.03530087 -0.06803814
0.045831036 0.2068053 -0.012039743 -0.030123014 0.04572644 8.649615e-05 0.16865298 0.019650145
-0.041323017 0.10564901 0.09576137 -0.035578296 -0.010274118 0.090626046 -0.035395987 -0.033332705
0.16506833 0.015985487 0.014057413 0.046762027 0.03524089 0.19666277 0.043619357 -0.004185329
-0.032302905 0.111147195 0.18836926 0.07193602 -0.1302954 -0.041573815 0.094566144 -0.06890561
-0.054850806 0.0633194 -0.13834158 -0.008425173 -0.10008852 -0.061532576 -0.21139649 -0.017134584
-0.07537494 -0.16535883 -0.10940504 -0.02892736 -0.08215804 -0.20727655 -0.091737814 0.034015767
-0.12303711 0.0179776 -0.102162704 0.06546557 0.17178263 0.036114402 -0.04806149 0.079794884
0.16741821 0.099322595 0.18047872 -0.08165021 -0.12598436 -0.14738607 -0.085440844 -0.058128163
-0.10435736 -0.041612186 -0.10573446 -0.10911412 -0.0045684045 -0.17811781 -0.11904939 -0.023239527
0.07695156 0.060174204 -0.13098894 -0.04432419 0.09169236 0.14813171 -0.01449228 -0.052606184
-0.025737837 0.15477891 0.16300622 0.14483717 -0.022876551 -0.16843283 -0.17356451 0.02407848
0.03557618 -0.17484482 -0.13551538 -0.050661214 -0.08450182 -0.19372547 -0.09933333 -0.16573717
0.07147615 0.04683527 -0.035653625 -0.0058564153 -0.12011355 -0.0061629573 0.15594071 0.070792034
-0.10690226 -0.12574196 0.07000911 0.16247472 -0.009300428 0.05533284 0.18158424 0.09817528
0.15070988 -0.0016957781 0.10217009 0.088618964 0.080091335 0.06980012 0.055164512 -0.17350058
-0.1858269 -0.103510216 -0.0066333916 -0.17609498 -0.23422004 -0.0448604 -0.22374767 -0.045440525
-0.10679133 -0.18349223 -0.17749615 -0.12835713 -0.1507689 -0.16603702 -0.15455136 0.020723315
0.15774423 0.19472255 -0.0033054934 0.08169368 0.08133014 -0.007797136 0.12848943 -0.012580773
-0.04449002 -0.05150988 -0.03515909 0.03809912 0.045238208 0.042520765 -0.19354464 0.038959797
-0.12185177 -0.078607686 0.002563039 -0.06727079 -0.009666415 -0.16001284 -0.014034441 -0.11843353
0.14061171 0.07200714 0.124244556 0.0015746923 0.057501227 0.03238587 0.14181505 0.0065199276
0.028512584 0.06483664 -0.07145412 -0.009058049 -0.0070435177 -0.07590322 -0.07690761 0.032635424
-0.06403432 0.014070487 -0.0071712728 -0.025721708 -0.15287076 -0.094562076 -0.07254612 -0.044327717
-0.03033815 -0.016863085 -0.023943843 0.07602226 0.019157318 -0.036003686 0.11473282 -0.048277795
-0.07639681 0.01630952 -0.05977175 -0.05687549 -0.11397238 0.07571147 0.06681162 -0.14662594
-0.07513759 -0.10532037 0.03327265 -0.08916099 -0.07778617 -0.056477092 -0.0007728985 0.04559954
0.072656296 -0.07993171 -0.040470574 0.07510373 -0.077126294 0.10924722 -0.042174708 -0.044385172
00000000: e640 c1bd 8580 5f3d cfc5 15be 17b5 17be
00000010: 479d 1d3c 8252 613d c349 7a3c ede9 b9bd
00000020: 56c6 0fbe 1b1d febd 1660 7fbc 294b d53d
00000030: 4139 3bbe f06a 3cbe b8de d0bd c2d7 093e
00000040: 49d1 ef3d f2aa 42be bad8 f2bd e400 b0bd
00000050: 09ab d4bd 5f43 fabc 5899 2cbe 849e 2cbe
00000060: 7837 f9bd 5db1 36bd 3c44 1b3e aa3c cf3d
00000070: 85fb 143d 71c3 27bd 93b2 99bc 510c c73d
00000080: 4c41 b53d 459b 14bd 9974 123c 39bf 3a3c
00000090: 35c5 193e 1c1a 3d3d a597 10bd 9557 8bbd
000000a0: 53b9 3b3d c5c4 533e 5842 45bc 8ac4 f6bc
000000b0: a64b 3b3d 4465 b538 5eb3 2c3e 57f9 a03c
000000c0: 5342 29bd 825e d83d 8a1e c43d 8cba 11bd
000000d0: c654 28bc 269a b93d 62fb 10bd e087 08bd
000000e0: ac07 293e fff3 823c 1051 663c 8a89 3f3d
000000f0: c058 103d f761 493e 36aa 323d 1625 89bb
00000100: 0d50 04bd 24a1 e33d dfe3 403e 3153 933d
00000110: 286c 05be 4e49 2abd e5ab c13d 621e 8dbd
00000120: 3dab 60bd 9aad 813d 6aa9 0dbe bd09 0abc
00000130: 36fb ccbd 9509 7cbd 5278 58be d45d 8cbc
00000140: 2d5e 9abd d353 29be c00f e0bd 12f9 ecbc
00000150: 7942 a8bd 4e40 54be 09e1 bbbd 1e54 0b3d
00000160: e1fa fbbd c345 933c ae3a d1bd d012 863d
00000170: c9e7 2f3e b2ec 133d 20dc 44bd 806b a33d
00000180: ae6f 2b3e a569 cb3d 6acf 383e 3a38 a7bd
00000190: 0b02 01be 60ec 16be 9cfb aebd cc17 6ebd
000001a0: 50b9 d5bd 8a71 2abd 4f8b d8bd 3977 dfbd
000001b0: 8eb2 95bb 8464 36be 2bd0 f3bd d260 bebc
000001c0: c898 9d3d 3a79 763d f721 06be 488d 35bd
000001d0: 34c9 bb3d d7af 173e 0771 6dbc 9579 57bd
000001e0: 28d8 d2bc 5d7e 1e3e 1aeb 263e 3250 143e
000001f0: 9b67 bbbc a879 2cbe e5ba 31be 3c40 c53c
00000200: 54b8 113d 850a 33be 8bc4 0abe 2282 4fbd
00000210: 4a0f adbd f85f 46be 466f cbbd 01b7 29be
00000220: 1662 923d 57d6 3f3d 8909 12bd 2ce7 bfbb
00000230: 18fe f5bd a2f2 c9bb ecae 1f3e 6afb 903d
00000240: 92ef dabd 80c2 00be f060 8f3d c65f 263e
00000250: d360 18bc b0a4 623d 38f1 393e 1f10 c93d
00000260: b153 1a3e df44 deba 8d3e d13d dc7d b53d
00000270: ed06 a43d 5ef3 8e3d 2ff4 613d 23aa 31be
00000280: 6849 3ebe 2afd d3bd ec5c d9bb 3e52 34be
00000290: 61d7 6fbe 8abf 37bd 1c1e 65be d81f 3abd
000002a0: 6ab5 dabd 63e5 3bbe 8dc1 35be 0d70 03be
000002b0: 2a63 1abe 9c05 2abe b642 1ebe f1c3 a93c
000002c0: b487 213e 5965 473e faa0 58bb 044f a73d
000002d0: 6b90 a63d 1e7f ffbb bc92 033e 961f 4ebc
000002e0: 2b3b 36bd 06fc 52bd fa02 10bd d30d 1c3d
000002f0: b34b 393d 412a 2e3d 9130 46be 4f94 1f3d
00000300: 6c8d f9bd 11fd a0bd a9f8 273b 45c5 89bd
00000310: e25f 1ebc 68da 23be b6f0 65bc 478d f2bd
00000320: 84fc 0f3e 7b78 933d ee73 fe3d e865 ce3a
00000330: 6886 6b3d 0ca7 043d f737 113e 1ea5 d53b
00000340: 3993 e93c 13c9 843d 8a56 92bd 3668 14bc
00000350: 4fcd e6bb 2673 9bbd bd81 9dbd b9ac 053d
00000360: 6d24 83bd e687 663c fffc eabb 55b6 d2bc
00000370: 278a 1cbe c3a9 c1bd 0f93 94bd fb90 35bd
00000380: b687 f8bc 7424 8abc e125 c4bc 8fb1 9b3d
00000390: cfef 9c3c 9a78 13bd 0af9 ea3d f0be 45bd
000003a0: ee75 9cbd 8b9b 853c 39d3 74bd 46f6 68bd
000003b0: 5a6a e9bd 9d0e 9b3d 88d4 883d 1c25 16be
000003c0: bde1 99bd 35b2 d7bd e748 083d 0a9a b6bd
000003d0: 5b4e 9fbd 8654 67bd 579c 4aba 95c6 3a3d
000003e0: d3cc 943d 3db3 a3bd 79c4 25bd fccf 993d
000003f0: 64f4 9dbd 02bd df3d 63bf 2cbd 3acd 35bd

conv1.bias f4 [6]
0.056267347 -0.04976342 0.127962 0.24626656 0.1992609 0.014406896
00000000: 9778 663d bad4 4bbd 7808 033e 4d2d 7c3e
00000010: 0d0b 4c3e e70a 6c3c

conv2.weight f4 [12, 6, 5, 5]
0.08150386 -0.07788223 -0.18811704 -0.3043945 -0.076300435 -0.043393526 -0.28884026 -0.095436655
-0.12498822 -0.11905916 -0.20192157 -0.24185683 0.005942103 0.056375246 -0.053687345 -0.22274029
0.004697349 0.027284645 -0.05599511 -0.25153765 0.0520081 0.10828673 -0.055905182 -0.10967651
-0.015469254 -0.19173293 -0.12167273 -0.046410203 0.08874728 -0.13735658 -0.03332578 -0.09707899
-0.112187214 -0.04592068 -0.053020228 0.13604094 0.054007456 0.07513489 0.113685586 -0.11989877
0.11983614 0.059121784 -0.051056404 -0.14621976 0.012794426 0.08210478 0.10348446 -0.028171148
0.011113877 -0.005653193 -0.19749366 -0.027573682 0.07920126 0.045429926 -0.06314124 -0.047297128
-0.14277919 -0.08974235 -0.056541003 0.009164789 -0.06902124 -0.3562039 -0.25748247 0.009875418
0.030973453 0.10509379 0.14341483 -0.039094023 0.028439652 0.031840842 0.05204204 -0.068863876
-0.04562163 -0.045357443 0.015858961 0.0076129707 0.08841281 -0.037350178 -0.05280659 -0.14123969
-0.07802321 0.011545629 -0.08584788 -0.042535134 -0.09301479 -0.04011611 -0.13119464 -0.10262665
-0.032904536 -0.0067705694 0.098839566 0.08242462 0.019692233 0.024120953 0.052082315 0.08447458
0.0031897114 0.13278668 -0.068294704 0.0016086273 -0.020398336 0.09473971 0.06923169 0.05093951
0.020364989 0.116299495 0.08606522 0.079274565 0.0654625 0.070727944 0.10845651 -0.049810898
0.056355864 0.07161514 0.010447369 -0.026536329 0.07538236 -0.020030808 0.09381429 -0.053091507
0.07542681 -0.025826685 0.04191363 -0.0426297 0.05189037 0.11197004 0.14367926 0.16803834
0.06434497 -0.18597767 0.20050162 0.18779528 0.1299001 0.21790728 0.002068526 0.15970425
0.031020822 0.03399061 0.2013752 0.13370447 0.019750971 -0.014435965 0.04481935 0.18418528
0.063738115 0.11774988 0.009892533 0.16365372 0.059127793 -0.08244253 -0.10032822 -0.015975285
-0.01058844 0.0008122949 -0.07682667 -0.21635771 -0.120432734 -0.16098982 -0.08246439 -0.010212269
-0.1604349 -0.15051848 -0.14831482 -0.11729261 0.022528108 -0.03489894 -0.10249524 -0.07644243
-0.058173254 0.0068111834 -0.03727068 -0.032038987 -0.05577077 -0.11334243 0.0072718738 -0.19889593
-0.24170128 -0.2610142 -0.11842949 -0.059612002 -0.15778406 0.14340574 0.07774386 0.0031821781
0.10288345 -0.09049205 0.17043814 0.043024953 0.14103216 0.18667555 0.0063884184 0.15778112
-0.020201541 -6.508435e-05 -0.12172679 -0.18318163 -0.03892838 0.027073387 -0.06275953 0.22244298
-0.1982605 -0.15165737 -0.05525384 -0.04242444 -0.1295464 0.11303339 0.1106236 0.011111751
0.0578346 -0.026717434 -0.025053674 0.11891004 0.10090975 0.014628906 0.026444456 0.0370402
0.0941122 0.11973406 0.16244264 0.2153583 0.071605146 0.2117041 0.23777619 0.25192553
0.35290942 -0.07751906 0.033598036 -0.016735347 -0.043545116 0.006686329 -0.01698089 0.10722565
0.10064648 0.07437366 0.12327315 0.036334913 0.037303023 0.12017196 0.16929944 0.10909903
0.09474827 0.07806241 0.08173309 0.0486382 0.057899278 0.035339046 0.13424443 0.08323703
0.18453592 0.21483582 -0.1281788 -0.035753164 -0.04698174 -0.07780966 -0.06867332 -0.032482345
00000000: 7feb a63d b880 9fbd c1a1 40be 99d9 9bbe
00000010: 6743 9cbd 69bd 31bd dfe2 93be 4b74 c3bd
00000020: d3f9 ffbd 4ad5 f3bd 87c4 4ebe 51a9 77be
00000030: f9b5 c23b bbe9 663d 43e7 5bbd 0816 64be
00000040: 38ec 993b 0c84 df3c 215b 65bd 8bc9 80be
00000050: 7206 553d 6fc5 dd3d d5fc 64bd 149e e0bd
00000060: c172 7dbc a355 44be 8d2f f9bd a018 3ebd
00000070: 22c1 b53d 34a7 0cbe 9d80 08bd 59d1 c6bd
00000080: 69c2 e5bd 5317 3cbd bd2b 59bd 514e 0b3e
00000090: ec36 5d3d 52e0 993d fdd3 e83d 7c8d f5bd
000000a0: a66c f53d af29 723d 8520 51bd a2ba 15be
000000b0: b69f 513c 8d26 a83d a9ef d33d 2ec7 e6bc
000000c0: fb16 363c 6c3e b9bb c73b 4abe 34e2 e1bc
000000d0: 4534 a23d bb14 3a3d 3250 81bd a2ba 41bd
000000e0: b534 12be d6ca b7bd 8a97 67bd e927 163c
000000f0: 025b 8dbd 5c60 b6be bed4 83be 81cc 213c
00000100: 0abc fd3c 6a3b d73d 56db 123e 0e21 20bd
00000110: 46fa e83c 8b6b 023d 092a 553d 8108 8dbd
00000120: bfdd 3abd bac8 39bd a7ea 813c 3a76 f93b
00000130: c611 b53d 80fc 18bd b94b 58bd 23a1 10be
00000140: a2ca 9fbd e129 3d3c 03d1 afbd 5239 2ebd
00000150: 8a7e bebd ca50 24bd e357 06be ec2d d2bd
00000160: e8c6 06bd a7db ddbb 666c ca3d 3dce a83d
00000170: 9b51 a13c 4e99 c53c 4454 553d 0201 ad3d
00000180: 7a0a 513b 3bf9 073e 18de 8bbd 93d8 d23a
00000190: 691a a7bc e506 c23d 58c9 8d3d f3a5 503d
000001a0: 7ad4 a63c 6e2e ee3d f642 b03d b45a a23d
000001b0: 3411 863d d0d9 903d 721e de3d 8306 4cbd
000001c0: 68d5 663d f5aa 923d 712b 2b3c b762 d9bc
000001d0: 1162 9a3d a617 a4bc b521 c03d 7b76 59bd
000001e0: 5f79 9a3d 7c92 d3bc a0ad 2b3d 7b9c 2ebd
000001f0: ff8a 543d 8c50 e53d a820 133e 3e12 2c3e
00000200: 4cc7 833d ee70 3ebe 4c50 4d3e 684d 403e
00000210: 8804 053e 1623 5f3e 1c90 073b 8389 233e
00000220: 611f fe3c bd39 0b3d 4d35 4e3e d3e9 083e
00000230: cacc a13c d384 6cbc 7f94 373d 119b 3c3e
00000240: 2189 823d d926 f13d 4a14 223c d794 273e
00000250: fc2f 723d a1d7 a8bd e278 cdbd 9ade 82bc
00000260: 237b 2dbc 30f0 543a 4d57 9dbd e08c 5dbe
00000270: 70a5 f6bd 84da 24be 17e3 a8bd 5c51 27bc
00000280: 0c49 24be 8421 1abe d7df 17be 1c37 f0bd
00000290: de8c b83c 31f2 0ebd 06e9 d1bd d98d 9cbd
000002a0: 1447 6ebd 5930 df3b 24a9 18bd 503b 03bd
000002b0: e46f 64bd 1320 e8bd e648 ee3b 60ab 4bbe
000002c0: 8a80 77be a7a3 85be 298b f2bd b72b 74bd
000002d0: 2592 21be f4d8 123e 2c38 9f3d 178c 503b
000002e0: 8fb4 d23d e553 b9bd 5687 2e3e ef3a 303d
000002f0: bc6a 103e e027 3f3e f055 d13b 6091 213e
00000300: b47d a5bc e57d 88b8 e54b f9bd f793 3bbe
00000310: 5d73 1fbd 02c9 dd3c 1288 80bd 18c8 633e
00000320: cd04 4bbe 124c 1bbe da51 62bd 40c5 2dbd
00000330: d0a7 04be 0d7e e73d a08e e23d 100e 363c
00000340: f9e3 6c3d 85de dabc 5d3d cdbc 1b87 f33d
00000350: c5a9 ce3d 14ae 6f3c 0ba2 d83c 77b7 173d
00000360: e6bd c03d 2137 f53d 5d57 263e e386 5c3e
00000370: b8a5 923d f6c8 583e 9a7b 733e 62fc 803e
00000380: 8bb0 b43e 50c2 9ebd 189e 093d 9118 89bc
00000390: 5d5c 32bd fe18 db3b 821b 8bbc 1f99 db3d
000003a0: be1f ce3d 3851 983d a276 fc3d ebd3 143d
000003b0: 0ecb 183d b71c f63d d55c 2d3e 506f df3d
000003c0: 620b c23d 2fdf 9f3d ae63 a73d d938 473d
000003d0: cb27 6d3d adbf 103d 5f77 093e 2d78 aa3d
000003e0: fcf6 3c3e ecfd 5b3e 4e41 03be e971 12bd
000003f0: ed6f 40bd ac5a 9fbd 99a4 8cbd 350c 05bd

conv2.bias f4 [12]
0.10519061 0.043323312 0.013864556 -0.0073931813 -0.050402824 -0.06936984 0.120397635 0.07727231
0.08017219 -0.037955415 0.014863805 0.07082315
00000000: 2d6e d73d c973 313d 2a28 633c 8042 f2bb
00000010: 3173 4ebd c611 8ebd 0993 f63d f240 9e3d
00000020: 5131 a43d 2377 1bbd 5187 733c ba0b 913d

conv3.weight f4 [24, 12, 5, 5]
-0.1883025 0.07996729 0.025220742 0.19469151 0.11256601 -0.21173857 0.06253923 0.017498435
0.15746455 -0.012946624 -0.0119920755 -0.030920532 0.046598844 0.09819795 0.1619493 -0.060733464
0.011502814 -0.08899844 -0.13700227 0.21274006 -0.06267829 -0.1840559 -0.050290387 -0.13240296
0.06570623 -0.15402886 -0.2167511 -0.13597935 0.158744 -0.033763386 -0.15483773 -0.10737948
0.05502505 0.015660094 0.032672834 -0.2830548 -0.22515555 -0.1523149 -0.03304735 0.05488081
-0.05150953 -0.10852291 -0.061908558 -0.34057242 -0.26494324 -0.02376534 -0.2425811 0.006290578
-0.12825714 -0.17780846 -0.10134799 -0.090540804 -0.05745052 -0.27329773 0.14464936 0.09877739
0.121986695 0.11076944 -0.066161186 0.19553983 0.14644778 0.08811756 0.08312617 -0.0033419905
0.04259215 0.091953985 0.017595457 0.040952794 0.08188885 -0.072709806 0.123183414 -0.0468935
0.06309061 0.031773563 0.007902416 0.029219482 0.012085798 0.006448285 -0.06778578 -0.06596493
-0.0459924 -0.0024051396 -0.04948735 -0.31996462 0.09844858 0.07217879 0.084452756 -0.16685052
-0.34424305 0.05296446 0.01001369 0.06888915 -0.09757523 -0.19600224 0.13435258 -0.07117428
0.1840604 0.11805688 -0.03407549 -0.050435346 0.0058726785 -0.04137464 -0.105434135 -0.09693882
0.02393524 0.03529888 0.04137995 -0.14670208 -0.24220313 0.2600394 -0.022512147 0.07903271
-0.12823614 -0.08187494 0.20787711 -0.10865211 0.22352844 -0.14573696 0.06618435 0.058613338
-0.48713523 -0.014529254 0.21800293 -0.06374451 -0.031617362 -0.13133533 -0.10420687 -0.25959638
-0.21818891 0.09846197 -0.18829058 0.10839615 -0.20737416 -0.08789034 0.13868548 0.029785765
0.1000416 -0.25206304 -0.110313796 0.032023262 0.07047627 -0.043426488 -0.06388489 -0.04153813
-0.021702264 -0.017782718 0.018632496 -0.23754038 -0.004847088 -0.0048220865 -0.061675984 0.03729635
0.2078921 0.20050542 -0.10445136 -0.09171398 0.028632386 0.25292543 0.120691635 -0.015757127
-0.15178528 -0.13520193 0.043621868 -0.09425388 -0.10136838 -0.176109 -0.006340023 -0.0030584303
-0.079979785 -0.13754971 -0.06359584 -0.03638859 -0.05333545 0.016549006 0.10344093 0.08166508
0.1111495 0.2726466 -0.013472182 -0.35017583 -0.010237069 -0.13945782 -0.17079051 -0.16082881
-0.23670599 -0.109203696 -0.053083763 -0.22459199 -0.2811868 -0.17406417 0.022311645 0.06913491
-0.26212335 -0.403416 0.058163885 -0.015906176 0.15621538 -0.14039595 -0.39790487 -0.00048602544
-0.11734371 -0.09490703 0.17099667 0.21289268 -0.095929064 -0.15186724 -0.11009874 0.08193284
0.06271906 0.06322024 -0.046578832 -0.05165702 -0.13698082 0.017891688 0.074459 -0.0022976347
-0.08966832 -0.12863694 -0.18545409 0.017621284 -0.02190578 -0.06826245 -0.17339675 -0.00448054
0.14584427 -0.18950197 -0.17489922 -0.11206234 0.09502149 0.052232165 -0.045996044 -0.10339582
0.064890295 0.05376962 0.16317259 -0.03501831 -0.03759809 -0.05593929 0.0018810655 0.20903558
0.016105248 -0.06290144 -0.07205557 0.054218058 0.1092269 0.052093145 0.018809266 -0.067690305
-0.027805254 0.110249996 0.15348391 -0.22107859 -0.011409738 -0.09283598 -0.08219595 0.07429993
00000000: 5fd2 40be e4c5 a33d bb9b ce3c 365d 473e
00000010: 0289 e63d ffd1 58be 9114 803d e158 8f3c
00000020: 633e 213e 141e 54bc 697a 44bc 0e4d fdbc
00000030: 6ede 3e3d 021c c93d 0ad6 253e a7c3 78bd
00000040: 4c76 3c3c d044 b6bd 534a 0cbe 88d8 593e
00000050: 7a5d 80bd 2679 3cbe 4bfd 4dbd a494 07be
00000060: fd90 863d beb9 1dbe 00f4 5dbe 2c3e 0bbe
00000070: ca8d 223e 7a4b 0abd c88d 1ebe c6e9 dbbd
00000080: f261 613d 9949 803c f3d3 053d 8fec 90be
00000090: 2d8f 66be 70f8 1bbe a85c 07bd b3ca 603d
000000a0: a8fb 52bd 4241 debd d493 7dbd 825f aebe
000000b0: a4a6 87be 88af c2bc 2e67 78be 3121 ce3b
000000c0: d755 03be 6c13 36be 898f cfbd 756d b9bd
000000d0: 3d51 6bbd aeed 8bbe f61e 143e cd4b ca3d
000000e0: 29d4 f93d 17db e23d 847f 87bd 983b 483e
000000f0: 68f6 153e fb76 b43d 0e3e aa3d 4c05 5bbb
00000100: 1b75 2e3d 5f52 bc3d 5924 903c 1ebe 273d
00000110: 57b5 a73d e1e8 94bd 9647 fc3d 6613 40bd
00000120: a635 813d ff24 023d 2379 013c b25d ef3c
00000130: 8303 463c 234c d33b 45d3 8abd 9f18 87bd
00000140: 8762 3cbd 8c9f 1dbb 3fb3 4abd 67d2 a3be
00000150: 699f c93d 79d2 933d 91f5 ac3d ddda 2abe
00000160: a040 b0be 43f1 583d 7610 243c c115 8d3d
00000170: 86d5 c7bd d0b4 48be b993 093e d2c3 91bd
00000180: 547a 3c3e cec7 f13d be92 0bbd 4b95 4ebd
00000190: 996f c03b 7478 29bd daed d7bd dc87 c6bd
000001a0: d613 c43c 8f95 103d 067e 293d 1239 16be
000001b0: 1904 78be e223 853e 656b b8bc e7db a13d
000001c0: 5650 03be 0cae a7bd bddd 543e ff84 debd
000001d0: a4e4 643e 123c 15be a98b 873d 8a14 703d
000001e0: ca69 f9be 1c0c 6ebc 293c 5f3e 7b8c 82bd
000001f0: 3581 01bd c57c 06be 696a d5bd d1e9 84be
00000200: ea6c 5fbe 6ea6 c93d 3fcf 40be cdfe dd3d
00000210: e459 54be daff b3bd 9103 0e3e 4701 f43c
00000220: 9ce2 cc3d 680e 81be 33ec e1bd d32a 033d
00000230: dd55 903d f9df 31bd 15d6 82bd e323 2abd
00000240: f2c8 b1bc 10ad 91bc 2da3 983c c93d 73be
00000250: 52d4 9ebb 9802 9ebb f59f 7cbd 0fc4 183d
00000260: abe1 543e 4b51 4d3e 98ea d5bd 8ad4 bbbd
00000270: 778e ea3c 717f 813e 2d2d f73d 1715 81bc
00000280: 9a6d 1bbe 6072 0abe d8ac 323d 2e08 c1bd
00000290: 3a9a cfbd eb55 34be f8bf cfbb f26f 48bb
000002a0: 71cc a3bd d5d9 0cbe 893e 82bd 340c 15bd
000002b0: 4676 5abd c891 873c d7d8 d33d 0540 a73d
000002c0: 59a2 e33d 5698 8b3e 6dba 5cbc 3f4a b3be
000002d0: 61b9 27bc 08ce 0ebe b5e3 2ebe 4fb0 24be
000002e0: 0e63 72be 30a6 dfbd 5c6e 59bd 71fb 65be
000002f0: b7f7 8fbe e13d 32be e9c6 b63c 9b96 8d3d
00000300: 0835 86be 8b8c cebe 413d 6e3d ab4d 82bc
00000310: edf6 1f3e f5c3 0fbe 30ba cbbe 3bd1 feb9
00000320: e651 f0bd 9e5e c2bd c019 2f3e 8a00 5a3e
00000330: 7576 c4bd 1683 1bbe 737b e1bd 68cc a73d
00000340: da72 803d 9d79 813d 72c9 3ebd 5096 53bd
00000350: b344 0cbe 9791 923c f67d 983d ea93 16bb
00000360: 06a4 b7bd 67b9 03be ade7 3dbe 835a 903c
00000370: c073 b3bc 2fcd 8bbd eb8e 31be 7ed1 92bb
00000380: 3358 153e ce0c 42be c818 33be f180 e5bd
00000390: a09a c23d 65f1 553d 5966 3cbd 30c1 d3bd
000003a0: 34e5 843d 883d 5c3d b716 273e 5c6f 0fbd
000003b0: 7400 1abd 9920 65bd 168e f63a 6c0d 563e
000003c0: 27ef 833c 78d2 80bd df91 93bd c113 5e3d
000003d0: 5ab2 df3d 9f5f 553d e415 9a3c 37a1 8abd
000003e0: d8c7 e3bc c0ca e13d e32a 1d3e 6d62 62be
000003f0: e9ef 3abc ca20 bebd 5a56 a8bd 902a 983d

conv3.bias f4 [24]
-0.009459676 -0.096969545 -0.068158485 0.030289972 -0.0068842233 0.08810027 -0.0538512 0.050415095
0.05193971 0.06489149 0.00066038937 -0.050969716 0.103299834 0.047611408 -0.044340216 -0.030679664
-0.0040886514 0.061494887 0.028623657 0.16073838 0.04276538 -0.019491535 0.12699361 0.12979048
00000000: c2fc 1abc f897 c6bd ad96 8bbd ad22 f83c
00000010: 0d95 e1bb ea6d b43d 1393 5cbd 0f80 4e3d
00000020: bcbe 543d d4e5 843d fb1d 2d3a 9fc5 50bd
00000030: dd8e d33d 2e04 433d 169e 35bd eb53 fbbc
00000040: 18fa 85bb 10e2 7b3d 297c ea3c 9a98 243e
00000050: c02a 2f3d b6ac 9fbc 9d0a 023e cce7 043e

fc1.weight f4 [200, 384]
-0.046218455 0.021180244 0.13047981 0.21627747 -0.076643884 -0.02900476 0.23505177 0.07492188
-0.04039392 -0.09433768 -0.029825369 0.104082 -0.1250678 0.059758686 -0.033032533 0.07226168
0.027464537 0.04767044 -0.020034553 0.008347251 0.008035296 -0.02724487 0.0037921823 0.041808322
-0.0383917 0.032750107 0.025227286 0.016009364 -0.022942284 0.009542776 -0.03611538 -0.03402942
-0.01957059 -0.003821109 -0.015180348 -0.035607573 -0.04034797 -0.0074320543 -0.053813107 -0.042667005
0.0064251875 0.029457733 -0.008823267 -0.01403885 -0.03716484 0.017618977 0.042715814 -0.04394479
-0.08238795 0.029188123 -0.03960648 0.043396838 0.053638086 0.00095476955 -0.03848776 0.052013684
-0.034319416 -0.11849228 0.06554023 0.0005485114 -0.06082618 -0.14146021 -0.045871 0.123393774
-0.0050190613 0.022990508 0.0018112607 0.024843238 -0.026595274 -0.030569779 0.0345008 -0.002572202
-0.026778549 -0.035971023 0.06089221 0.009869909 -0.00872681 -0.039368905 -0.0036324868 0.039670266
0.029392174 0.086621866 0.09210314 -0.017415335 0.046113748 0.102989994 0.02802181 0.0918075
0.044046648 0.07983571 0.02610312 -0.034225423 -0.024723954 0.015302477 0.0054365513 -0.1747075
0.08661146 0.0044971225 0.04497455 0.112102814 -0.0025210283 0.020959483 0.09956175 0.0352786
0.072462566 -0.007880145 0.1406543 0.0128116505 0.12571359 -0.072456114 -0.1417605 -0.18489634
0.0168121 -0.030343704 -0.0029987828 0.09647748 -0.03660336 0.019165583 -0.006359866 0.0039867735
0.005835617 -0.032446276 0.0651091 0.0325107 0.06305857 -0.016161522 -0.040768184 -0.0007614556
-0.06520529 -0.0038376735 0.024348298 0.050893072 0.059868675 0.0772911 -0.04796254 0.0825022
0.024089957 0.01790109 -0.007981784 0.050581608 -0.064586 -0.027215963 -0.0035531959 0.028858222
0.052034322 -0.17782241 -0.09653455 -0.031028166 0.0012040966 -0.013787124 0.12459105 -0.07945539
-0.037534673 0.07325327 0.099430874 0.05137929 0.08696918 0.05293931 0.03551698 -0.007703004
-0.08353475 -0.0049259407 0.009604652 -0.06769646 0.009028204 0.009021739 -0.0844134 0.06846025
0.037024263 0.05626219 0.011439436 -0.0022023402 -0.09840037 0.085519165 0.03332437 -0.0060365573
-0.0112617435 0.01052688 0.13651617 0.15002836 -0.078745954 0.013429455 0.023658361 0.12908225
-0.019166283 0.017867178 0.017181933 0.03332588 0.015630428 -0.109980054 -0.099308394 -0.06609594
0.16770394 0.056169733 -0.03528988 -0.034121122 0.034672428 0.016961461 -0.017116752 0.044006012
0.09147724 0.01915455 0.00041822367 0.083923094 -0.08071192 0.04578636 0.055385835 0.096418805
-0.10680536 -0.18551973 -0.1403961 -0.08452816 0.030676275 0.1319376 -0.071076415 -0.012846358
0.07677358 -0.0770315 0.026364997 -0.04788205 0.15530701 0.09848357 -0.116588354 0.014840908
-0.04491597 -0.018179473 -0.029885758 0.0072111045 -0.03746448 0.010452677 0.031468168 0.013559841
0.02207929 0.021646783 -0.032894164 0.028545493 0.047920525 0.010953518 -0.009245949 -0.020578925
-0.019660473 0.018720316 0.0015790346 -0.019074425 0.04842516 0.07654837 -0.02781707 -0.13731359
0.111086644 0.04657645 -0.046459574 0.20944618 0.008746784 0.20875195 0.0028345024 -0.086553946
00000000: 904f 3dbd 3182 ad3c 809c 053e d777 5d3e
00000010: 78f7 9cbd 649b edbc 69b1 703e a570 993d
00000020: 1874 25bd 1d34 c1bd 5554 f4bc f228 d53d
00000030: c611 00be 86c5 743d 1f4d 07bd effd 933d
00000040: 4ffd e03c 1442 433d 811f a4bc e9c2 083c
00000050: 79a6 033c a230 dfbc 4386 783b 343f 2b3d
00000060: 9d40 1dbd fa24 063d 74a9 ce3c 1226 833c
00000070: 75f1 bbbc 4e59 1c3c b8ed 13bd 6f62 0bbd
00000080: 8152 a0bc 926b 7abb ffb6 78bc 3fd9 11bd
00000090: ea43 25bd 9788 f3bb 226b 5cbd 99c3 2ebd
000000a0: 618a d23b 5851 f13c 778f 10bc 3403 66bc
000000b0: 293a 18bd ac55 903c c7f6 2e3d 74ff 33bd
000000c0: 03bb a8bd ee1b ef3c 683a 22bd e2c0 313d
000000d0: 9cb3 5b3d 8049 7a3a 57a5 1dbd 4d0c 553d
000000e0: 8492 0cbd 15ac f2bd f539 863d fac9 0f3a
000000f0: df24 79bd f2da 10be 3be3 3bbd e0b5 fc3d
00000100: f076 a4bb 9756 bc3c d367 ed3a 0c84 cb3c
00000110: 55de d9bc 796d fabc b650 0d3d 6392 28bb
00000120: b05e dbbc 5a56 13bd 1c6a 793d 66b5 213c
00000130: e5fa 0ebc 4a41 21bd 040f 6ebb 4a7d 223d
00000140: dbc7 f03c ce66 b13d 92a0 bc3d 9baa 8ebc
00000150: c5e1 3c3d 6bec d23d ff8d e53c 9205 bc3d
00000160: 426a 343d e880 a33d 36d6 d53c f52f 0cbd
00000170: e489 cabc 3eb7 7a3c 1925 b23b 86e6 32be
00000180: 5961 b13d 995c 933b 3c37 383d 2996 e53d
00000190: d637 25bb 39b3 ab3c 08e7 cb3d 4b80 103d
000001a0: 4167 943d b91b 01bc ae07 103e f5e7 513c
000001b0: 10bb 003e df63 94bd aa29 11be 7755 3dbe
000001c0: 87b9 893c 5c93 f8bc 3a87 44bb fc95 c53d
000001d0: 68ed 15bd 2401 9d3c 6c66 d0bb 7ba3 823b
000001e0: b438 bf3b 63e6 04bd eb57 853d f129 053d
000001f0: da24 813d 2b65 84bc 8afc 26bd 6c9c 47ba
00000200: 5a8a 85bd 7a81 7bbb 1576 c73c 4175 503d
00000210: db38 753d cc4a 9e3d 5e74 44bd eaf6 a83d
00000220: 4d58 c53c 4fa5 923c 07c6 02bc a92e 4f3d
00000230: aa45 84bd 03f4 debc bcdc 68bb 1468 ec3c
00000240: f121 553d 1417 36be e8b3 c5bd c82e febc
00000250: c7d2 9d3a 64e3 61bc 9829 ff3d 82b9 a2bd
00000260: f5bd 19bd cf05 963d 6aa2 cb3d 1773 523d
00000270: e61c b23d e4d6 583d 417a 113d 7b69 fcbb
00000280: 4414 abbd c969 a1bb d55c 1d3c 71a4 8abd
00000290: 08eb 133c eacf 133c efe0 acbd e334 8c3d
000002a0: c1a6 173d 2f73 663d 796c 3b3c 2355 10bb
000002b0: 2286 c9bd ac24 af3d 227f 083d 50ce c5bb
000002c0: 2d83 38bc ef78 2c3c e5ca 0b3e 09a1 193e
000002d0: 8f45 a1bd 3807 5c3c 2ecf c13c 232e 043e
000002e0: 9c02 9dbc 305e 923c 20c1 8c3c b880 083d
000002f0: 620b 803c 393d e1bd 3362 cbbd 4f5d 87bd
00000300: 95ba 2b3e 3c12 663d 1f8c 10bd 97c2 0bbd
00000310: ad04 0e3d c3f2 8a3c 6e38 8cbc a63f 343d
00000320: 6b58 bb3d 01ea 9c3c 0845 db39 dfdf ab3d
00000330: 4b4c a5bd 7a8a 3b3d 42dc 623d 3977 c53d
00000340: c5bc dabd e2f8 3dbe ffc3 0fbe 1a1d adbd
00000350: d04c fb3c a61a 073e 8390 91bd 8879 52bc
00000360: 773b 9d3d b1c2 9dbd 68fb d73c f81f 44bd
00000370: cd08 1f3e c1b1 c93d e0c5 eebd 4827 733c
00000380: cff9 37bd 1eed 94bc fad2 f4bc 214b ec3b
00000390: 5b74 19bd b441 2b3c c4e4 003d 182a 5e3c
000003a0: a1df b43c 9854 b13c 08bc 06bd 3dd8 e93c
000003b0: 5048 443d 6276 333c 527c 17bc 2295 a8bc
000003c0: 000f a1bc 595b 993c 9cf7 ce3a f841 9cbc
000003d0: 7659 463d 64c5 9c3d a0e0 e3bc ef9b 0cbe
000003e0: 6581 e33d f3c6 3e3d 654c 3ebd 0f79 563e
000003f0: ac4e 0f3c 12c3 553e 0fc3 393b 3243 b1bd

fc1.bias f4 [200]
0.09746999 0.07355709 -0.008588523 0.10512918 -0.0034024438 -0.045683444 0.028961832 -0.06824575
0.06624748 -0.035727505 -0.08217282 -0.0010166691 -0.059116196 0.020252462 0.07649322 -0.0586704
-0.05350499 0.08246254 0.03620669 0.11872394 0.04377028 -0.058188293 0.07979276 -0.054754432
-0.012073843 -0.0630134 -0.05511561 -0.02175563 0.0031322637 0.07850942 0.018875904 0.005424538
0.1295642 0.028675156 -0.010810356 -0.024513032 0.0083024595 -0.046173334 -0.05715187 0.08684714
0.033242844 0.081089444 0.003891372 -0.006394446 -0.005244999 0.051155012 -0.052895423 -0.0397194
-0.028517071 0.093598984 -0.05649716 0.044584617 0.013743675 0.009648933 0.12146824 0.03766744
0.086019255 0.07731053 -0.044880237 0.08873808 0.07332402 0.04871591 -0.012542049 -0.052504737
0.027083479 -0.03442592 0.006610499 -0.063110836 -0.061822593 0.09444675 0.04084622 -0.048169583
0.09202291 0.07288002 0.097205706 -0.03433546 0.08532515 0.020428209 0.012465708 -0.06828687
-0.081664704 0.03324312 0.06765386 0.02484904 -0.080468096 0.051782023 -0.072525084 0.12126535
0.12973571 0.026738452 0.06940196 -0.008056705 -0.06819335 0.039216593 -0.059876844 0.11898469
0.07298614 0.046543963 -0.030497914 -0.064277865 -0.07094427 0.08941931 -0.020897891 -0.041319966
0.14633828 0.0034571034 -0.058335196 0.0966655 0.013595814 -0.0062529827 -0.059585825 0.15526128
0.036526944 0.020633273 -0.008095278 0.019528423 0.067498416 -0.049666412 0.0616435 -0.026958177
0.043463707 0.013864918 0.06511641 0.038888052 0.03094193 0.056113426 0.096994 -0.04985569
0.03288792 -0.042883106 -0.07480055 0.06645759 0.007968526 -0.04028117 0.012739559 -0.033808995
0.082334556 -0.038531225 0.018512303 -0.010555496 0.00487282 0.09167342 0.1595191 0.058427412
0.08789927 -0.07084877 0.13455759 -0.071514994 0.008269934 -0.0077828444 0.046049725 0.08869961
0.030902278 0.0676105 -0.008347797 0.08300862 0.05363594 -0.015050628 0.013078539 0.039606042
0.025806718 -0.019468859 -0.0437462 0.052221477 -0.04801649 0.06068118 0.025575042 0.040031828
0.0009347368 -0.062475313 0.06123039 -0.0154156 0.054806642 0.06937887 -0.08425813 -0.05672784
0.045269653 -0.058236487 -0.014279179 0.0429683 0.047761653 0.032880247 0.009932441 0.097624116
-0.018737769 -0.06628798 0.08137077 -0.017455954 -0.047336664 -0.076499544 -0.0077816537 0.05792267
0.027755471 -0.060367852 -0.030128213 0.13155422 -0.049429562 0.09847347 0.051429346 0.03459525
00000000: 599e c73d 19a5 963d e0b6 0cbc f84d d73d
00000010: 89fb 5ebb 901e 3bbd 5d41 ed3c 6ec4 8bbd
00000020: c2ac 873d 0157 12bd 394a a8bd c141 85ba
00000030: d323 72bd 7ee8 a53c 7aa8 9c3d 6050 70bd
00000040: 0c28 5bbd 1fe2 a83d 774d 143d 8925 f33d
00000050: 7748 333d d956 6ebd 636a a33d 2f46 60bd
00000060: 5ed1 45bc 2b0d 81bd e8c0 61bd dd38 b2bc
00000070: aa46 4d3b 8cc9 a03d a4a1 9a3c 53c0 b13b
00000080: 7aac 043e 29e8 ea3c eb1d 31bc 8ecf c8bc
00000090: 0a07 083c 4020 3dbd 1418 6abd eadc b13d
000000a0: a629 083d 3912 a63d 6306 7f3b 8088 d1bb
000000b0: 3ede abbb eb87 513d dfa8 58bd cfb0 22bd
000000c0: a29c e9bc d3b0 bf3d 9169 67bd 5c9e 363d
000000d0: 272d 613c 8f16 1e3c 57c4 f83d 2c49 1a3d
000000e0: dd2a b03d fc54 9e3d 57d4 37bd 4fbc b53d
000000f0: e72a 963d 568a 473d 2b7d 4dbc 350f 57bd
00000100: 2cde dd3c 3202 0dbd e39c d83b 4140 81bd
00000110: b039 7dbd 4c6d c13d 5e4e 273d 784d 45bd
00000120: 8276 bc3d 1f42 953d c913 c73d 57a3 0cbd
00000130: f4be ae3d 0f59 a73c f83c 4c3c fdd9 8bbd
00000140: d33f a7bd f029 083d 1b8e 8a3d 3790 cb3c
00000150: 75cc a4bd 6319 543d 0888 94bd f859 f83d
00000160: 70d9 043e 990a db3c 9d22 8e3d 4500 04bc
00000170: f5a8 8bbd 94a1 203d 6c41 75bd 3fae f33d
00000180: c279 953d e2a4 3e3d c3d6 f9bc 1da4 83bd
00000190: 3b4b 91bd 7921 b73d 0e32 abbc 203f 29bd
000001a0: b4d9 153e 9290 623b e3f0 6ebd 90f8 c53d
000001b0: fac0 5e3c d2e5 ccbb 4410 74bd d0fc 1e3e
000001c0: 479d 153d 1c07 a93c 0fa2 04bc 12fa 9f3c
000001d0: 9c3c 8a3d 026f 4bbd e57d 7c3d 65d7 dcbc
000001e0: 0007 323d ae29 633c c15b 853d 1449 1f3d
000001f0: ee79 fd3c 31d7 653d caa4 c63d 7b35 4cbd
00000200: 7cb5 063d 32a6 2fbd 0831 99bd eb1a 883d
00000210: 6c8e 023c defd 24bd 95b9 503c 4d7b 0abd
00000220: 059f a83d ebd2 1dbd 1da7 973c f6f0 2cbc
00000230: 2dac 9f3b 46bf bb3d fa58 233e 9551 6f3d
00000240: 8804 b43d 2919 91bd 77c9 093e 7476 92bd
00000250: 9e7e 073c 3b07 ffbb a39e 3c3d 24a8 b53d
00000260: c626 fd3c 6077 8a3d 33c5 08bc 6c00 aa3d
00000270: 5cb1 5b3d e996 76bc 5e47 563c f239 223d
00000280: 9c68 d33c 287d 9fbc 372f 33bd 30e6 553d
00000290: f0ac 44bd d48c 783d c082 d13c 6af8 233d
000002a0: 2009 753a 1de6 7fbd b8cc 7a3d b691 7cbc
000002b0: ee7c 603d 8216 8e3d 878f acbd 745b 68bd
000002c0: ac6c 393d 6289 6ebd 38f3 69bc 87ff 2f3d
000002d0: b9a1 433d 70ad 063d adbb 223c 27ef c73d
000002e0: f37f 99bc fec1 87bd b8a5 a63d caff 8ebc
000002f0: 17e4 41bd cbab 9cbd 3efd febb 5240 6d3d
00000300: 715f e33c 4844 77bd 71cf f6bc 26b6 063e
00000310: a776 4abd 75ac c93d 94a7 523d c0b3 0d3d

fc2.weight f4 [20, 200]
-0.07074467 0.030581163 0.004580604 -0.07128482 0.020991836 -0.013102478 0.001297516 0.054534998
0.022524828 0.06972822 -0.044532195 -0.04128612 0.020810219 -0.05065835 0.0060175755 -0.061933212
-0.06634297 -0.016519397 -0.044024594 0.003385393 -0.025209557 -0.012379432 0.011086822 0.004129456
-0.03683882 0.04338628 -0.018122362 -0.025676856 0.0408674 -0.00083914935 0.029330306 -0.027883952
0.037274145 0.028291132 0.03431953 -0.012635046 -0.046578277 0.04191684 0.003806459 -0.078029595
0.042360865 0.0041698073 -0.0518172 0.0035936427 -0.017447127 -0.039150026 0.023804406 -0.014099504
-0.02088137 -0.052981254 -0.018229466 0.02840267 0.03335694 0.06366032 -0.098102935 -0.036732845
-0.0035799714 -0.02950001 -0.062626615 0.044473685 0.06907307 -0.03624705 -0.0042141457 0.051568914
0.020260043 0.03708246 0.042893387 0.0041831676 0.021570943 -0.029451536 0.026098454 -0.0032697949
-0.060219582 -0.0076694456 -0.041281667 0.0225297 -0.000702259 -0.04157604 -0.039068628 0.053921357
0.03129905 -0.08913642 0.009884111 -0.03188448 0.06662859 -0.08204419 0.036493678 0.012378875
-0.045033555 0.06169867 -0.015640957 -0.05592989 -0.018406533 -0.05729931 0.04591784 0.028080052
-0.02168018 -0.074112475 0.06914181 0.05708612 0.027714487 -0.0010793218 -0.049625684 -0.054649327
-0.06065584 -0.018489469 -0.048944943 0.011131472 -0.009167176 -0.0043029995 -0.050807986 -0.06250142
0.0076190303 0.002083078 0.064250246 -0.000103807695 0.053004943 0.014444805 0.012199738 0.04402376
-0.08788714 0.0022843257 -0.017992863 -0.06515427 -0.005111545 -0.030656986 -0.008983239 -0.031018674
0.051938407 0.033920266 -0.008642996 0.048016954 -0.03800282 -0.044108886 0.016008453 -0.0545286
-0.018999403 -0.02641258 0.04703571 0.053920943 -0.010469598 -0.0657866 -0.06674559 0.021711191
0.021083519 -0.04983249 -0.00078280794 -0.038356684 -0.02453197 -0.05529307 -0.02268085 -0.016365334
0.028436942 -0.036761165 -0.0017319996 0.06450134 -0.048138767 0.058011077 -0.045587886 -0.0900197
-0.01814079 0.06608359 0.047386505 -0.07017212 0.010616564 -0.072444245 -0.044593044 0.024972305
0.019267054 0.02949531 -0.00870408 -0.02112282 0.021088215 0.020585919 -0.0155719295 -0.029342165
0.034016393 0.0613463 0.007608223 -0.038099125 0.00011728904 -0.067656785 0.058532476 -0.081644475
-0.05588496 0.039450202 -0.065658495 0.0664048 -0.023562197 0.017607218 -0.00995764 -0.042821378
-0.09849089 0.037599653 0.03304383 0.03173204 -0.022184433 -0.04676831 -0.06828246 -0.012077854
-0.0026855995 0.01758428 -0.0071388055 0.005413391 0.1397076 0.009536691 -0.49813247 0.009342042
-0.1576828 -0.014085612 0.06267463 -0.009673377 0.03574976 -0.02573594 -0.38342017 0.06973268
0.040384144 0.37425324 0.0013036483 0.0551943 0.060743626 0.048853736 -0.16341165 -0.04483999
0.54440755 0.04094439 0.05861542 0.011319357 0.006649477 0.2869649 0.06382641 0.28765094
0.2326508 0.054325856 -0.5251661 0.08753002 -0.58639073 -0.047510695 -0.022368005 0.012422418
0.111720614 -0.3315493 0.18108273 0.055856377 0.059686504 0.21736439 0.006036723 0.047026668
0.48454863 -0.021661608 -0.49863556 -0.13104476 -0.03271297 0.026537782 0.044482037 0.077518575
00000000: 95e2 90bd 5985 fa3c e418 963b c7fd 91bd
00000010: 12f7 ab3c c7ab 56bc 6a11 aa3a 1760 5f3d
00000020: fd85 b83c abcd 8e3d 6467 36bd a21b 29bd
00000030: 317a aa3c 217f 4fbd 152f c53b aead 7dbd
00000040: d3de 87bd b053 87bc 2253 34bd 78dd 5d3b
00000050: 4684 cebc 1ad3 4abc 80a5 353c 6350 873b
00000060: 4de4 16bd d0b5 313d 5975 94bc 4558 d2bc
00000070: 9364 273d 5cfa 5bba 1c46 f03c e36c e4bc
00000080: c6ac 183d cec2 e73c a392 0c3d 3903 4fbc
00000090: ddc8 3ebd feb0 2b3d c975 793b fbcd 9fbd
000000a0: 9682 2d3d e1a2 883b 463e 54bd 5283 6b3b
000000b0: 47ed 8ebc c75b 20bd 7501 c33c 9b01 67bc
000000c0: 680f abbc df02 59bd f655 95bc b7ac e83c
000000d0: 49a1 083d 5860 823d 31ea c8bd 2e75 16bd
000000e0: f49d 6abb 01aa f1bc 6242 80bd 0a2a 363d
000000f0: 2f76 8d3d c977 14bd d116 8abb ed39 533d
00000100: 64f8 a53c c7e3 173d fab0 2f3d f412 893b
00000110: 8cb5 b03c 5944 f1bc 6dcc d53c 0e4a 56bb
00000120: cfa8 76bd f94f fbbb f716 29bd 3590 b83c
00000130: ce17 38ba a34b 2abd 6d06 20bd a4dc 5c3d
00000140: 6f33 003d 288d b6bd f7f0 213c 4d99 02bd
00000150: 9274 883d c906 a8bd 657a 153d c4d0 4a3c
00000160: 1b75 38bd bfb7 7c3d 7721 80bc be16 65bd
00000170: 4cc9 96bc aeb2 6abd 5814 3c3d 2308 e63c
00000180: a29a b1bc 48c8 97bd 399a 8d3d 23d3 693d
00000190: 7e09 e33c 0878 8dba 4d44 4bbd f9d7 5fbd
000001a0: 4272 78bd 3a77 97bc 7e7a 48bd c760 363c
000001b0: ec31 16bc 2d00 8dbb 091c 50bd bf00 80bd
000001c0: 0fa9 f93b 4084 083b a295 833d 55b3 d9b8
000001d0: b61b 593d e7a9 6c3c 69e1 473c 4252 343d
000001e0: 2cfe b3bd a0b4 153b c565 93bc 9a6f 85bd
000001f0: bf7e a7bb 5c24 fbbc 6f2e 13bc e01a febc
00000200: 5ebd 543d faef 0a3d 5a9b 0dbc 6dad 443d
00000210: d8a8 1bbd 85ab 34bd 2924 833c 6259 5fbd
00000220: a3a4 9bbc 325f d8bc 84a8 403d 35dc 5c3d
00000230: ad88 2bbc 20bb 86bd e9b1 88bd abdb b13c
00000240: 58b7 ac3c 271d 4cbd 5a35 4dba e61b 1dbd
00000250: 45f7 c8bc fc7a 62bd 31cd b9bc 9810 86bc
00000260: 97f4 e83c e092 16bd 4304 e3ba 4719 843d
00000270: 282d 45bd 069d 6d3d 5dba 3abd 405c b8bd
00000280: fe9b 94bc d556 873d 5a18 423d 67b6 8fbd
00000290: 19f1 2d3c a65d 94bd 32a7 36bd b892 cc3c
000002a0: f1d5 9d3c 26a0 f13c 8f9b 0ebc c409 adbc
000002b0: 31c1 ac3c cda3 a83c 6821 7fbc fb5e f0bc
000002c0: c654 0b3d 4246 7b3d 664e f93b d40d 1cbd
000002d0: 13f9 f538 a48f 8abd c0bf 6f3d 3835 a7bd
000002e0: a1e7 64bd 8996 213d f677 86bd 3dff 873d
000002f0: 8205 c1bc 033d 903c 5f25 23bc 7865 2fbd
00000300: 97b5 c9bd 1802 1a3d f858 073d 75f9 013d
00000310: 21bc b5bc 2190 3fbd add7 8bbd 31e2 45bc
00000320: e200 30bb e80c 903c a4ec e9bb d162 b13b
00000330: 820f 0f3e c83f 1c3c 380b ffbe 5d0f 193c
00000340: 9a77 21be 57c7 66bc 8e5b 803d 157d 1ebc
00000350: 576e 123d 2ed4 d2bc a64f c4be 02d0 8e3d
00000360: d869 253d 1f9e bf3e 2edf aa3a 6b13 623d
00000370: 4fce 783d db1a 483d 6255 27be 23aa 37bd
00000380: 4b5e 0b3f 4eb5 273d b916 703d d374 393c
00000390: dbe3 d93b 10ed 923e 6cb7 823d fc46 933e
000003a0: 033c 6e3e ca84 5e3d 4971 06bf f042 b33d
000003b0: b41d 16bf 939a 42bd 1b3d b7bc 6687 4b3c
000003c0: c7cd e43d d4c0 a9be c06d 393e a8c9 643d
000003d0: d679 743d c594 5e3e b4cf c53b 099f 403d
000003e0: c216 f83e af73 b1bc 294d ffbe 9930 06be
000003f0: 09fe 05bd c365 d93c cc32 363d 0fc2 9e3d

fc2.bias f4 [20]
-0.09589067 0.0859166 -0.088913165 0.02221062 -0.046688944 -0.053681538 -0.079989746 -0.07361915
-0.04372554 -0.038647443 0.05415364 0.05266174 -0.043033984 0.1417709 -0.076896794 0.006022589
-0.07485627 0.12897567 -0.067877375 0.009162719
00000000: 5462 c4bd 0bf5 af3d 1b18 b6bd 0cf3 b53c
00000010: e83c 3fbd 2ce1 5bbd aad1 a3bd a3c5 96bd
00000020: 8d19 33bd c84c 1ebd 35d0 5d3d d6b3 573d
00000030: 6744 30bd 642c 113e 117c 9dbd 2359 c53b
00000040: 3e4e 99bd 3312 043e 4b03 8bbd 3b1f 163c

fc3.weight f4 [2, 20]
-0.103945635 0.19331455 0.1686901 0.39896554 0.21552567 -0.18911839 0.17084 -0.042892475
-0.19578917 0.37099287 0.10528562 0.13824466 0.1007494 -0.25165957 0.06980689 0.37398887
0.02231681 -0.26493397 -0.17154492 0.023395304 0.15541692 -0.40847874 0.16489339 -0.07239348
0.15681495 -0.1743019 0.13884056 0.0011444348 0.24884005 -0.39593354 -0.38897455 -0.36185533
0.07462064 0.2764787 0.11659337 -0.52005714 0.08755683 0.20090684 0.104930796 -0.016154742
00000000: 73e1 d4bd 40f4 453e 19bd 2c3e 3645 cc3e
00000010: c3b2 5c3e 40a8 41be aef0 2e3e 05b0 2fbd
00000020: f57c 48be c7f2 bd3e fd9f d73d 0290 0d3e
00000030: b455 ce3d 86d9 80be eaf6 8e3d 787b bf3e
00000040: bed1 b63c 6da5 87be 79a9 2fbe 82a7 bf3c
00000050: 9d25 1f3e 2024 d1be d0d9 283e 0843 94bd
00000060: 1994 203e 337c 32be 382c 0e3e dc00 963a
00000070: edcf 7e3e cdb7 cabe ac27 c7be 1a45 b9be
00000080: b5d2 983d 9e8e 8d3e 81c8 ee3d 7722 05bf
00000090: ff50 b33d 86ba 4d3e f5e5 d63d f356 84bc

fc3.bias f4 [2]
0.1148751 0.0019516774
00000000: a343 eb3d 6dcf ff3a
