saves/model02.pth (torch, 365697 bytes, 12 tensors)

conv1.weight f4 [6, 3, 5, 5]
000000 16 f2 a9 bd 76 24 ce 3b 3f 59 bc bd d4 27 39 bd
       -0.08298127 0.0062909676 -0.0919671 -0.045204
000010 2f 4c 7e bd 15 83 e5 bc f6 65 e3 3c 87 96 20 be
       -0.062084373 -0.028016606 0.02775858 -0.15682422
000020 b9 49 64 3b c2 de ca bd e6 2e dd bb 27 90 1d bd
       0.0034833981 -0.09905769 -0.0067499755 -0.038467553
000030 0a 21 00 be d8 19 bf 3b f8 6f 29 3d b8 95 76 3d
       -0.12512603 0.0058319382 0.041366547 0.060201377
000040 91 b3 09 3e 04 62 2f 3d 88 fd a7 bd 54 0c 92 bc
       0.13447405 0.042818084 -0.08202654 -0.017828144
000050 0d 5f 00 3e 66 b9 f2 3d f2 62 57 3e 55 ae 95 3d
       0.12536259 0.11851768 0.21033838 0.07308642
000060 18 92 b3 3d 29 af a8 bd 77 87 81 bd 47 c3 21 be
       0.087680995 -0.08236534 -0.06324666 -0.15797149
000070 3f 1e ab b9 42 b6 40 3b bb 84 88 bb 3c 4a 2a be
       -0.00032638197 0.002940551 -0.0041662133 -0.1662988
000080 89 de 86 3c 84 30 9b bc cc a3 21 be 13 b0 e9 bd
       0.016463535 -0.018944032 -0.1578514 -0.114105366
000090 2e 72 f0 3c e5 64 1e be cd ce 1e be c1 26 75 bd
       0.02935132 -0.15468176 -0.15508576 -0.05985141
0000a0 c3 d1 7a 3d ac 1b b4 bd 17 40 91 bd 73 54 5a bd
       0.0612352 -0.087943405 -0.07092302 -0.053303193
0000b0 d7 db 4c bd 36 fc 94 3d 40 fc 33 3e 04 a6 e9 3d
       -0.050014343 0.07274668 0.17576694 0.11408618
0000c0 94 5e 2b 3e 16 1f 25 3e 95 50 39 3c 28 5c 31 bd
       0.16735297 0.1612514 0.011310716 -0.043300778
0000d0 f1 03 ed bd 6a cc d1 bd 1e 49 69 bd 44 b4 ce bd
       -0.115730174 -0.10244067 -0.056954496 -0.10092977
0000e0 e0 de d9 bc 17 a0 8d 3d 9f 7c a3 bd ff cc a5 3c
       -0.026595533 0.069153 -0.07982754 0.020239351
0000f0 77 16 20 be 52 2a cb bd e2 13 0d be 84 b1 08 bd
       -0.1563357 -0.09920181 -0.13777116 -0.033372417
000100 21 e8 c8 bd 3f 5b 9e 3c 94 1c 48 3d 25 e3 07 bd
       -0.098099 0.019330619 0.04885538 -0.033175606
000110 43 90 ad 3d e3 99 8f 3c 8a 9d ab 3d e9 2f d4 3c
       0.08474781 0.017529434 0.083796576 0.025901752
000120 f0 cd 82 3d 88 8e 0e 3d 06 f0 24 3d d6 eb 15 3e
       0.06386936 0.034803897 0.040267967 0.14640746
000130 91 a7 12 3e 35 5c b2 3d 9d 01 d4 3b d0 1f da bd
       0.14321734 0.08708993 0.006469919 -0.10650599
000140 55 95 3a 3e d5 11 f6 3d 23 2b aa 3d 6c a4 3f 3d
       0.18221028 0.1201512 0.08309009 0.046787664
000150 59 f3 aa 3b 30 f0 c4 3d 7c 33 d8 bc 00 7d dd bd
       0.0052169976 0.09616125 -0.026391737 -0.108148575
000160 07 39 e4 bd ff 62 0b be af 32 22 bc e2 b5 17 3b
       -0.111436896 -0.13611983 -0.009899779 0.0023149182
000170 c1 9e e3 bd 93 8f 4c 3d 55 91 8a bd 6e d9 68 bd
       -0.11114264 0.04994161 -0.06766001 -0.056847982
000180 0f b1 c2 bc b7 ac ed bd 6d 33 1c 3d 17 68 83 bc
       -0.023766069 -0.11605208 0.03813498 -0.016040845
000190 d1 f6 03 3e e5 dc ae 3c 67 1d 3f 3d f6 40 10 be
       0.12887122 0.021345565 0.0466589 -0.1408728
0001a0 c6 db 5e bd d3 19 bb bc ab b2 d9 3d e0 ba ab 3c
       -0.05440881 -0.022839462 0.10629781 0.020963132
0001b0 35 77 07 be 3d 3d 7f bc 6f e6 ea 3d 1c 0b d8 bd
       -0.13229068 -0.015578565 0.11469733 -0.10548994
0001c0 8a f5 3a be 6d 05 4c be 12 91 b2 bc 21 3a 95 3d
       -0.18257728 -0.19923945 -0.02179769 0.07286478
0001d0 dc d2 32 be dc e2 22 be bb fb 18 be 45 4b 30 39
       -0.17463249 -0.15906852 -0.14939778 0.00016812708
0001e0 a8 0c e2 bd 0f e1 06 bd 2d a9 1c be 3c d0 4c be
       -0.1103757 -0.032929476 -0.1529891 -0.2000131
0001f0 30 89 21 3d 54 ec 0d 3e be 80 53 3e 0f 79 b4 3d
       0.039437473 0.13859683 0.2065458 0.088121526
000200 00 f5 70 bc 83 76 6b bd 40 15 3d 3e 9e 0d a3 3d
       -0.01470685 -0.05748607 0.18465137 0.07961582
000210 8f 72 3c bd c1 ab a7 bd bf 7d 0d 3e 61 62 20 3e
       -0.04600769 -0.08187056 0.138175 0.15662529
000220 77 d7 21 3d 27 2a 08 3d 90 6f 6e 3d 56 33 9d bd
       0.039512124 0.033243325 0.058211863 -0.07675807
000230 97 cd ce 3b 40 e0 95 3d 88 88 07 be cf 72 c7 bc
       0.0063111293 0.07318163 -0.13235676 -0.024346737
000240 44 4b 4d bd db 0f 34 bd 9f 73 0e 3e fd 33 ca bd
       -0.050120607 -0.043960433 0.13911293 -0.09873197
000250 0b c3 52 bd 79 9e 2d 3e 61 1e d4 bd dd 32 ac bd
       -0.05145554 0.16954984 -0.10357357 -0.08408139
000260 0d 72 1b be ad 4c 1f 3e 2b 13 35 3a 03 38 fa bd
       -0.15180226 0.15556593 0.00069074583 -0.12217715
000270 28 ad 3c be 16 01 6a bc 5c 83 1a 3e a9 57 37 3e
       -0.18425429 -0.0142824855 0.15089172 0.17904533
000280 e1 dc 26 3d 48 a1 a5 3c a4 b6 66 bb b9 ac f8 bc
       0.04073799 0.020218506 -0.0035204077 -0.030355798
000290 f2 f7 8b 3d ee 3c e2 3d 5a f8 0e bd 3c af 9d 3c
       0.06834401 0.11046778 -0.034904815 0.019248597
0002a0 8f 29 ba 3b 48 5c 99 bd d1 82 04 3e 79 1e 87 bc
       0.0056812237 -0.074883044 0.12940527 -0.016494023
0002b0 79 4a fb 3c fe 09 83 3d 7e 9d 1b be 5b ed 3b be
       0.03067516 0.0639839 -0.15196797 -0.18352263
0002c0 3f 0a 6e be 82 02 40 bd c5 2f 80 3d 58 43 c1 3d
       -0.23246096 -0.04687739 0.06259111 0.09436673
0002d0 2c a3 13 be 86 97 81 be 22 e4 b5 bd 03 53 13 3e
       -0.14417714 -0.25310916 -0.088814035 0.14387135
0002e0 80 5e 81 3c 05 73 b4 bc 0b 3e ce bd 8c eb dd bc
       0.015792131 -0.022027502 -0.100704275 -0.027089857
0002f0 30 74 3f 3e 92 fd 14 3e d4 2d 86 bd 2a 5a 80 3d
       0.18696666 0.14549854 -0.0655171 0.062671974
000300 b8 bf 11 3d d3 8c 96 bd d2 01 e1 3d b8 17 6a 3d
       0.035583228 -0.07351079 0.10986675 0.057151526
000310 ef 99 80 3d cc 72 73 3d ee 52 f5 3c a4 9e 0c bd
       0.062793605 0.05943565 0.02994677 -0.03433098
000320 44 1d 92 be 45 31 5c be d1 33 23 bd 48 a6 03 bc
       -0.28537953 -0.2150317 -0.039844338 -0.00803525
000330 ae f3 13 3c ed bb 1e be 80 82 71 be 95 db 00 be
       0.009030266 -0.15501375 -0.23584938 -0.12583764
000340 28 18 f2 bb 4e f6 0e 3e 25 57 60 be ca e2 bb bc
       -0.0073881336 0.13961145 -0.21908243 -0.02293529
000350 80 c8 24 3e 6e 3a 04 3e fa 95 43 bc 71 a0 a2 3d
       0.1609211 0.12912914 -0.011937613 0.07940758
000360 3b 66 39 3e e6 39 29 3e 4f 95 36 3d 95 50 3f bc
       0.18105404 0.16525993 0.044575986 -0.011676927
000370 5f e6 ed bc e8 38 6b 3e d2 db 7b 3e 27 ed 32 3e
       -0.029040514 0.22970927 0.24595574 0.17473279
000380 83 66 0f 3d 25 95 9a bc 83 c6 a1 3c ed 93 7c bd
       0.035009872 -0.018869946 0.019747978 -0.06166451
000390 09 2b b8 3c c0 6a 1b be b9 6b d0 bd dd a8 2d bd
       0.022481458 -0.1517744 -0.101767965 -0.04239737
0003a0 63 49 34 bd 63 b7 a5 bb 66 df 13 bd 29 29 7c bd
       -0.0440153 -0.005057262 -0.03610172 -0.06156269
0003b0 2e 30 d6 bd 40 a5 6d bc 1e 39 cb bc 4e 89 74 3c
       -0.10458408 -0.014504731 -0.024807509 0.014925314
0003c0 33 48 2b be a3 f7 82 bd a8 8d a4 3b ce ab 71 bd
       -0.1672676 -0.06394889 0.0050217696 -0.059001736
0003d0 dd 33 3a be ea 4f 3f be fb 31 e9 bd 17 14 34 3c
       -0.18183847 -0.18682829 -0.11386486 0.010991118
0003e0 3c b6 35 be 63 1d a0 bd 08 82 94 bd fc 68 e3 bc
       -0.17745298 -0.07818105 -0.07251364 -0.027760021
0003f0 13 96 8d bb 40 c6 dd bd 51 a2 82 3d 0b 94 31 3d
       -0.0043208688 -0.10828829 0.06378616 0.043354075

conv1.bias f4 [6]
000000 08 ad 5c bd ba c0 3e 3d 10 87 33 3d ba 8a 36 3e
       -0.053875953 0.046570517 0.043829978 0.17826357
000010 79 e3 cc 3c 62 8a bf bd
       0.025010811 -0.09352566

conv2.weight f4 [12, 6, 5, 5]
000000 1d e1 02 be 72 7c b6 3c df 74 01 3e f0 ea 86 3d
       -0.12781186 0.022276137 0.12642239 0.065877795
000010 e8 14 23 3e 3d f6 24 be e1 74 23 be 35 ac e6 bd
       0.15925944 -0.16109557 -0.15962555 -0.11263315
000020 9e 1c a9 bd 32 9a a6 be dc 71 36 be 75 81 b9 bd
       -0.082574114 -0.32539517 -0.17816871 -0.09057895
000030 e8 31 0f bd 20 37 f5 bd c2 93 42 be bd 9f 26 bd
       -0.034959704 -0.11973405 -0.19001678 -0.040679682
000040 17 be 83 be 28 2f 83 bd d0 f2 c6 bd b7 c6 03 be
       -0.25730965 -0.06405479 -0.097142816 -0.12868772
000050 b0 59 0d 3e 1f f7 65 3c fe 9f 50 3d 8c a3 0c 3d
       0.13803744 0.014035969 0.05093383 0.034335658
000060 bb ee 0c 3e 70 a1 fe bd 23 56 07 be 03 10 ce bd
       0.13762943 -0.124331355 -0.13216452 -0.10061648
000070 18 ab 0c 3d 06 38 87 3d 71 74 ca 3c 40 65 05 3e
       0.034342855 0.066024825 0.024713727 0.13026905
000080 ac 70 91 bc 7a da 80 3d 41 29 b4 3d d0 45 48 bd
       -0.017753921 0.06291671 0.08796931 -0.048894703
000090 11 f9 28 3e d8 0c 1e 3e a4 02 2c 3e 3e b0 46 3e
       0.16501261 0.15434587 0.16797882 0.19403169
0000a0 54 1b 87 3d 4e 60 7e 3b 22 1a c0 3d ba df 64 3c
       0.06597009 0.0038814726 0.093799844 0.013969356
0000b0 ee cf ed 3b ef 68 df bd 4d f3 ff 3c f1 e6 b6 bd
       0.007257453 -0.10908686 0.031243945 -0.08930767
0000c0 66 df ec bc b8 1b 50 bd 5d a3 d8 bd 0a a5 59 3b
       -0.028915118 -0.050807685 -0.10578034 0.0033209943
0000d0 cb 78 13 be 9b 97 72 bd a9 e4 18 be 89 c8 8c bd
       -0.14401548 -0.059226613 -0.14930977 -0.068741865
0000e0 a6 cd 41 bd 25 10 80 bd e4 d9 30 be a0 70 f6 bd
       -0.047315262 -0.06253079 -0.17270619 -0.120332
0000f0 65 69 a7 bd fd fc 00 be cb 18 5f bd 54 ce 52 bd
       -0.08174399 -0.12596507 -0.054467004 -0.0514663
000100 b5 51 24 3d 9a 28 89 bd d8 45 a0 bd 60 29 3c be
       0.040116984 -0.06697197 -0.07825822 -0.18375158
000110 4b 4b e8 bc 64 09 b7 3c 97 5c bc 3a 8a 47 33 bc
       -0.028356215 0.022343345 0.0014370856 -0.010942349
000120 c3 8f 20 3d a6 da bf 3d 25 af af 3d 82 0a 1d 3c
       0.0391996 0.09367876 0.08578328 0.009585025
000130 60 42 22 be 31 35 7a bd 69 c5 1b bd 0a 2d eb bd
       -0.15845633 -0.061085884 -0.038030062 -0.114832
000140 23 46 c7 bd 34 f0 f9 bd 78 9c 18 bd ba 10 68 bd
       -0.097301744 -0.12204018 -0.037258595 -0.056656577
000150 df c2 3e 3d 22 5c 03 3e 6a 95 71 3d bf ec 42 3d
       0.046572562 0.12828115 0.058980383 0.04758906
000160 da 29 4d bd 4c 2b 47 3d 2c f4 d5 3d ad 27 3b 3d
       -0.05008874 0.048625275 0.10446963 0.045692135
000170 2a d0 b1 3d c4 50 fd 3d 79 88 d1 3d a3 14 f1 3d
       0.08682282 0.123689204 0.10231108 0.11771514
000180 b6 a2 f2 3c 2c af 1f 3d c9 93 68 3d 48 00 af 3d
       0.029618602 0.038985416 0.056781564 0.085449755
000190 6a 2a 9e 3c 1d 07 00 3d 5d a6 1f 3b 17 83 57 bb
       0.019307334 0.031256784 0.0024360635 -0.0032884532
0001a0 1c 12 29 3e 9d 04 8f 3a 56 e8 91 bd e6 2a 95 3c
       0.16510814 0.0010911409 -0.07124393 0.018208932
0001b0 de 47 db bc bc 2d 96 3d 13 3b 8d 3d 6a 05 df 3c
       -0.026767667 0.07332942 0.06896033 0.027224261
0001c0 a9 e1 34 bd 5f eb 3c bc 1b 1a 7d 3d 14 27 07 3b
       -0.04416052 -0.011530726 0.061792474 0.0020622658
0001d0 c6 df 28 bd cb cb bb bc 52 93 b6 3d 4f a1 ae 3d
       -0.041229032 -0.022924324 0.08914818 0.08526861
0001e0 4d c3 20 bc 3a 49 91 3d ca b1 f6 3c 13 45 73 3d
       -0.009812188 0.07094045 0.030114073 0.059392046
0001f0 e2 f2 12 bc 4c 78 e0 bd 76 42 39 bb f0 c3 ae bd
       -0.008969041 -0.10960445 -0.0028268374 -0.08533466
000200 9c 66 bd bd 4c 38 1f 3c 0b a3 be bd 52 0f ba bd
       -0.09248087 0.009718012 -0.09308442 -0.09084953
000210 b3 81 31 bd 57 bb 01 3d fc 1f c9 3d e3 97 f4 3c
       -0.04333658 0.0316728 0.09820554 0.029857581
000220 59 ba 92 bd f3 7c fb bd 02 f7 da 3b 28 bc 59 3e
       -0.07164449 -0.122796915 0.0066822777 0.21263182
000230 ef 9b 86 bd cf dc 5b 3b ab 71 01 3c 5a 86 be 3d
       -0.06572711 0.003354836 0.007900636 0.09302969
000240 58 de 15 3e 46 67 91 3c 32 15 70 bc 43 8a 58 3d
       0.14635599 0.01774944 -0.014653491 0.05286623
000250 1f 2a ce 3d a0 e5 2e 3e d0 52 8c bb f7 bb 27 3d
       0.10066628 0.17079782 -0.004282333 0.04095074
000260 7f 7e e3 bd dd 0c 45 bd ed 09 90 3d e4 54 84 3e
       -0.111081116 -0.04810797 0.07033143 0.25846016
000270 76 79 2b 3e 82 c9 6a 3d ca 9e 11 bd c4 99 32 bd
       0.16745552 0.05732108 -0.035551824 -0.043603674
000280 d5 88 2a 3e 1a d3 76 3d 63 a3 3b bb 9e ce 6a 3c
       0.1665376 0.060259916 -0.0028631322 0.014331488
000290 35 f6 e3 bc d8 10 61 3d 2c e7 d6 3d 97 24 90 3c
       -0.027827362 0.054947704 0.10493311 0.017595572
0002a0 c1 7e ba 3d 8f 2f 87 bd 68 4d 40 3e cc 1e 1f 3e
       0.09106208 -0.06600868 0.18779528 0.15539092
0002b0 3f 2c 23 3e a1 95 07 3e 98 3d ca 3d b0 c0 ed 3b
       0.15934847 0.13240673 0.09875029 0.007255636
0002c0 f5 76 2b 3e a5 30 2b 3e 6f 6a 05 bc 9b c4 14 3d
       0.16744597 0.16717775 -0.0081430515 0.03632031
0002d0 6b 7a 1e 3e 32 04 db 3d 3b e3 f3 3d 4c 46 1f bd
       0.15476386 0.106941596 0.11908575 -0.0388854
0002e0 99 df a1 3c 48 e4 34 3e c1 b2 8a 3d 4e ed 8e bd
       0.01975994 0.17665207 0.06772376 -0.06978856
0002f0 66 69 97 bd b1 ad af bd 71 5b 21 3d b9 45 4d bd
       -0.0739315 -0.08578051 0.039393846 -0.05011532
000300 0a 23 ee 3c bc 56 d8 39 03 2e ad bd ec 1f a0 bc
       0.029069442 0.00041263353 -0.08456042 -0.019546472
000310 28 8c ed bc 55 ad e8 3d dc a1 ca bc 8a 7d 91 3d
       -0.028997496 0.113611855 -0.024735384 0.07104023
000320 09 cb 87 bd b7 00 04 be a6 e9 82 be 6c e9 4f be
       -0.06630523 -0.12890898 -0.25568885 -0.20303887
000330 76 cb 3f be 3c 88 21 be e9 3c d8 be 81 31 02 be
       -0.18729958 -0.15774626 -0.4223397 -0.12714197
000340 19 4b 8c bd 8d db a1 bd 02 e5 81 be d9 9a be bd
       -0.06850261 -0.07903204 -0.25370032 -0.093068786
000350 d5 68 a6 bd 69 c2 7a bd a5 3e b7 bd ab 8d 0f be
       -0.08125464 -0.06122056 -0.08947495 -0.14018886
000360 fa 64 61 bd 8d 6e dd bd 8f 8d 02 3a 4a 05 20 be
       -0.05502794 -0.108121015 0.00049802003 -0.15627018
000370 a5 20 29 bc 14 3a 9d 3d 29 aa 57 bd 15 a6 e7 3d
       -0.0103227245 0.07677093 -0.05265251 0.113109745
000380 27 c6 85 bd 6e 9e d8 3c cc 67 98 3d 25 43 b1 3d
       -0.06531935 0.026442733 0.07441673 0.08655385
000390 f8 c4 40 bd 80 7c 01 3d 3f a2 c5 3d c1 03 05 3e
       -0.047062844 0.031612873 0.096500866 0.12989713
0003a0 b3 ad bd 3d b4 a1 78 bc 8a b6 7c 3d ae 1f ac 3c
       0.09261646 -0.015175272 0.06169752 0.0210112
0003b0 24 30 1e 3e bf 2b 1c 3d b6 25 85 3a bc 67 b9 bb
       0.15448052 0.038127657 0.0010158333 -0.005658118
0003c0 6e 69 3b 3e 1e 51 d0 3d ab 2e be 3d 07 0b 34 3e
       0.18301937 0.10171722 0.09286245 0.17582332
0003d0 3f 4a 18 3e 0d 23 d0 3d 08 70 05 3e 8a 24 34 3e
       0.14872073 0.101629354 0.13031018 0.17592064
0003e0 8a ab 78 3e 75 50 5c 3e f1 05 4d 3d 1d 78 8d 3d
       0.24284187 0.21515067 0.050054494 0.069076754
0003f0 9b e1 cc 3c 6b 54 3a 3d f0 5c 85 3d 03 80 5b 3b
       0.02500992 0.045490663 0.06511867 0.003349305

conv2.bias f4 [12]
000000 6a ce ca 3c 8b a5 49 bd fb 45 89 3c 91 a3 af 3b
       0.024756629 -0.04923014 0.016757002 0.005360075
000010 25 4f 60 3d 4c e6 0f bd 27 64 95 bd 78 f7 ca bc
       0.054762978 -0.035131738 -0.07294493 -0.024776205
000020 3a ea 21 3c 12 32 93 bc 65 b7 10 be 70 22 01 bd
       0.009882504 -0.017968211 -0.1413246 -0.031526983

conv3.weight f4 [24, 12, 5, 5]
000000 f9 c4 aa bd 9b 2e 48 bd 60 4c d7 3c 81 88 37 3e
       -0.08338351 -0.04887257 0.026281536 0.17923166
000010 ed 07 8c 3d 50 0a ed bb b7 dd 67 3d 70 9d 0d 3d
       0.06837449 -0.0072338954 0.056607928 0.034573972
000020 7c ee 13 3e 15 82 a9 3d 8b 83 0d be 70 db 00 be
       0.14446443 0.08276764 -0.13819711 -0.12583709
000030 79 96 e5 3c b4 21 a7 3c 40 ca db bd e8 e3 6b be
       0.028025853 0.020401813 -0.107319355 -0.23036158
000040 50 9a 0e bd bb cb d7 3c 25 d2 84 3c f7 88 42 3d
       -0.034815133 0.026342263 0.016213486 0.0474939
000050 63 23 ed bc 96 11 43 bd 99 a6 81 bd ac 81 98 bd
       -0.028947538 -0.047624193 -0.06330604 -0.07446608
000060 47 0a ac 3b 6c 82 1e be 72 48 a0 bd a5 04 c3 bc
       0.0052502486 -0.1547944 -0.07826318 -0.023805926
000070 39 b7 ed 3c c2 5e 41 3e 35 3d 1e 3e 72 16 95 3d
       0.029018031 0.18883803 0.15453036 0.07279672
000080 6e cf 75 bd fa 39 84 3c a4 76 c9 bb b0 5e ec 3d
       -0.060012273 0.016140927 -0.0061481763 0.11541498
000090 09 2c 8f 3c 07 0b 08 be d9 62 1f 3d 9c 6a d8 3d
       0.017477052 -0.13285457 0.038912628 0.10567209
0000a0 49 c6 74 bc 7a e9 09 be 0b 48 62 3c 31 80 87 3d
       -0.014939853 -0.1346797 0.013811122 0.066162474
0000b0 0e 8a 42 3c 9c fd d4 bc 0d ce 7d be ce a9 d5 bd
       0.011873735 -0.025999837 -0.24785633 -0.10432778
0000c0 87 ea 9e 3d b6 86 1e 3d 30 e3 c5 3c 57 69 9c 3d
       0.07759576 0.03870269 0.024156183 0.076372795
0000d0 c8 91 c7 3a ea d9 ac bc cf 1b 32 bc 90 b4 e4 bd
       0.0015225941 -0.021100003 -0.010870888 -0.11167252
0000e0 33 7b 53 3d 94 c9 5a 3b 92 70 5a bd 3c a1 50 be
       0.051631164 0.003338431 -0.05333001 -0.20374006
0000f0 05 a3 f4 bd 16 f0 d9 bc 0e 94 01 bd 70 a4 f7 bc
       -0.11945156 -0.02660374 -0.031635337 -0.030229777
000100 da 2d 1d bc c2 91 34 3e c3 d4 91 3d 98 72 c4 bd
       -0.009593451 0.17633727 0.07120659 -0.095921695
000110 aa 2e ab 3a 83 8d 65 3a 5c a0 ae bd 9f 8f 51 3c
       0.0013060172 0.00087567436 -0.0852668 0.01279059
000120 c9 28 74 3d dc ef 9c bd 77 53 68 be aa 7a ac bc
       0.05960921 -0.07662937 -0.2268809 -0.021054585
000130 ba d4 3c 3e a8 a5 f7 3d 0a ba 87 3d 06 7f 9e 3d
       0.18440524 0.12092143 0.06627281 0.077390715
000140 42 b6 3e bd 9f ae af 3d 65 2d 68 3e 1f be 51 3e
       -0.046560533 0.08578228 0.22673567 0.20482682
000150 98 1f 76 3d 25 30 38 bd b7 46 98 3d e6 91 b8 3d
       0.060088724 -0.04496779 0.07435363 0.09012203
000160 74 ec 79 3c 2e 3d e6 bc 85 87 aa bc fd c8 ae bc
       0.015254129 -0.028105345 -0.020816574 -0.021336073
000170 e3 73 fb 3c 1c 30 43 bc 83 75 92 3d b8 bf 32 3e
       0.030694908 -0.011913326 0.0715132 0.17455947
000180 92 9c 12 3e 01 4c 58 be ef d9 87 3c 73 d4 b4 bd
       0.1431754 -0.21122743 0.016583411 -0.08829584
000190 1f e5 bb bd 92 03 32 3c 43 d1 d3 3d 8c fb 71 3d
       -0.09174561 0.010865109 0.10342648 0.059077784
0001a0 e9 0c 8e 3d 3b fc ee bc 2d 7b a2 3d 5f 37 82 3d
       0.06936056 -0.029173007 0.0793365 0.063582174
0001b0 fc 20 19 bc de b3 cd 3d 69 44 1c bd 7e 5e 8e 3d
       -0.009346243 0.100440726 -0.03815118 0.06951617
0001c0 25 59 ff bd 61 00 c1 bd f0 55 01 bd 6f 0c ed bc
       -0.12468175 -0.094239004 -0.031576097 -0.028936593
0001d0 d1 0e 1e 3c 13 97 d1 ba 2e c7 1d 3d f6 26 bc bd
       0.009647087 -0.0015990458 0.03852003 -0.09187119
0001e0 24 11 5b 3e b7 e2 2d 3e 62 73 37 3c c3 4e 17 3e
       0.21393257 0.16981016 0.011196943 0.14776139
0001f0 f2 26 54 3d 50 d1 42 bd 9c 1c 3c be 95 00 0d be
       0.051794954 -0.047562897 -0.18370289 -0.13769753
000200 c4 16 29 bd 09 14 02 3c e7 ad 80 3d d6 41 ad be
       -0.041281477 0.007939347 0.06283169 -0.3383929
000210 fa 75 ef bd 31 8b 58 bd c0 6a 37 bd bb 4e a8 bc
       -0.11692424 -0.05286712 -0.04477954 -0.020545354
000220 32 68 36 be 4b 33 a4 bd a7 2d cc 3d a4 78 41 3d
       -0.17813185 -0.08017596 0.09969645 0.047234192
000230 9b c7 6a bd a9 4c d3 bd ac 67 ab bd e2 b2 5a 3d
       -0.057319265 -0.10317356 -0.08369383 0.053393252
000240 42 a6 5a 3c 86 be 7f be 4b bf 40 be ba 99 86 be
       0.013345303 -0.24975023 -0.18822972 -0.2628916
000250 e1 76 d1 bb e4 39 d8 bb 09 6b 51 bd 37 5c ee bc
       -0.0063923453 -0.006598698 -0.051127467 -0.029096706
000260 c2 de f6 3c a8 7f 61 bd 71 49 2a bc 36 9c a0 3c
       0.030135516 -0.055053383 -0.010393486 0.019605737
000270 73 e2 0d 3c ea 27 33 bb c3 27 85 3d bb e3 ca 3c
       0.008659947 -0.0027337023 0.065017246 0.024766793
000280 28 35 a6 3c 6a 15 a0 3c 1a 59 a9 3c 0b 87 a5 3b
       0.020289019 0.019541461 0.02067237 0.0050514988
000290 d2 8e 29 3d bf 85 54 bd cf a5 94 bc 8f 8d d5 bc
       0.04139597 -0.051885363 -0.01814547 -0.026068477
0002a0 a9 26 d2 3c a3 37 4d 3c 51 d6 83 3d 3a 7e 46 3d
       0.0256532 0.012525472 0.06437362 0.048460223
0002b0 ff 46 23 bc ad 24 15 bd 95 2b 0d bd a8 48 f6 3d
       -0.009965657 -0.03641193 -0.03446539 0.12025577
0002c0 48 dd 42 3d 60 cc 3a bb c1 95 4b bb f8 22 f7 3c
       0.04757431 -0.0028503165 -0.0031064602 0.030168042
0002d0 bc 55 7a 3d 21 15 d1 bc 36 d9 1a bc 03 86 2d 3c
       0.06111692 -0.02552277 -0.009451201 0.010591033
0002e0 46 dc 07 be 32 79 f9 3c 64 03 0b 3e cf 76 99 bd
       -0.13267621 0.030453298 0.13575512 -0.07493364
0002f0 76 05 db bd 25 7f 2a 3d 0e 89 7e bd dc 1d 09 bd
       -0.10694401 0.04162516 -0.062142424 -0.03347574
000300 19 34 b8 bd ff 45 d2 bc 4a 8f ff 3c 52 8a b6 bd
       -0.08994312 -0.025668142 0.031196255 -0.08913101
000310 c6 be d2 bc d9 74 dd bd dd 2c f1 bc 1e 36 c9 bd
       -0.025725733 -0.108133025 -0.029440338 -0.09824775
000320 bc f0 ad be 94 b0 87 bd fb 87 ee 3d 24 8a ed 3d
       -0.33972728 -0.066254765 0.1164703 0.11598614
000330 40 10 15 3b dd c4 ca bc 17 d4 00 3e bc fb d4 3c
       0.0022745281 -0.024752075 0.12580906 0.025998943
000340 a5 17 6c 3d db f4 07 be 21 0d 9e 3d b7 d4 36 bd
       0.057639737 -0.13276999 0.07717348 -0.044636454
000350 9d 1b 9e bd c2 22 1e 3e 2f 3a db bd eb e2 4a bd
       -0.077201106 0.15442947 -0.10704457 -0.049532812
000360 df ae e9 bd 42 60 49 bc 59 2c 94 bd 36 1d e8 bc
       -0.11410307 -0.012291016 -0.07235021 -0.028334241
000370 e3 96 67 be 95 86 59 be c8 07 a9 bc 7d ac ab 3b
       -0.22616152 -0.21242745 -0.020633593 0.005239068
000380 39 13 c0 bc b2 5b ad bd e9 06 05 be e8 7b 86 bd
       -0.023446666 -0.08464755 -0.12990917 -0.06566602
000390 9d 93 4c 3d 8f fe 2b 3e 3f 95 f7 bd 03 09 3e be
       0.049945462 0.16796325 -0.12089013 -0.18558125
0003a0 b8 af 23 3d a5 19 e8 3c 82 cd b8 3d 56 10 22 3b
       0.0399625 0.02833254 0.090235725 0.0024728975
0003b0 33 ae 1d be 30 e5 28 bd f7 f0 8d bc 7c 08 af bb
       -0.15398483 -0.041234195 -0.017326815 -0.0053415876
0003c0 7c bc fc bd be e7 ac bd cc d1 e5 3c ee 56 fd bd
       -0.12340638 -0.08442639 0.02805414 -0.12370096
0003d0 99 4a 1c 3e 67 53 32 3e db a9 1f 3d 78 ae 7e be
       0.15262832 0.17414628 0.038980346 -0.24871242
0003e0 26 3c 05 be 0b 31 58 3d 1d 58 00 3e 66 d2 f4 bc
       -0.13011226 0.052781146 0.12533613 -0.029885482
0003f0 c2 83 c4 bc 0b ff 36 3d 55 28 e3 3d e3 d0 7d 3d
       -0.023988608 0.04467682 0.11091677 0.061966788

conv3.bias f4 [24]
000000 5f 59 76 3c bf 23 2e 3d f3 8e 2b 3d 45 90 1c bd
       0.015035956 0.04251456 0.041884374 -0.038223524
000010 b4 94 f9 3d 1c 4b f5 3d c7 cb 81 bd 94 79 c0 bd
       0.12186566 0.119772166 -0.063376956 -0.09398189
000020 f0 6a 6f 3d c3 f9 b3 3d ad 39 2a bd 89 de 3c bd
       0.058451593 0.08787873 -0.04155891 -0.046110664
000030 af 5d 90 3d 64 53 5c bd a2 0f aa 3d 5a 5d 82 bc
       0.07049119 -0.053790465 0.08303763 -0.015913654
000040 d3 17 cc bb 60 ee 1b bd 7d 2b c7 bb 15 d7 43 bc
       -0.006228426 -0.03806913 -0.0060781823 -0.011953135
000050 dc 9b f4 bc 29 61 70 3d 6b c2 ae bd dc 01 dc 3c
       -0.029859476 0.05868641 -0.08533176 0.026856355

fc1.weight f4 [200, 384]
000000 77 4c c6 3c c2 d1 c4 bc 5e a3 44 3d aa 1b a7 3c
       0.024206383 -0.024025802 0.04800736 0.020398933
000010 1a 60 42 bd f9 3c aa 3c 72 76 56 bb bd 29 a0 bc
       -0.04745493 0.020781027 -0.0032724408 -0.019551152
000020 90 13 f8 3c e9 01 96 3c 8d 7e 90 bc 05 7f ca ba
       0.030282766 0.018311458 -0.01763847 -0.0015449232
000030 c1 61 55 bd ce 2f 35 3d 95 00 11 bb f5 ed 95 3c
       -0.05209518 0.044235043 -0.002212559 0.018301943
000040 ac 39 83 3c 4b b1 35 bd 72 b5 39 bd 87 cd 13 bd
       0.016018711 -0.044358533 -0.045339055 -0.036084678
000050 99 12 68 bd 43 8c e9 bc b1 cf a4 bd ef 7d b7 bc
       -0.05665836 -0.028509265 -0.080474265 -0.022398917
000060 94 d5 94 3c ef 51 52 bd 3f 47 8a bd d0 0e 75 bd
       0.018168248 -0.05134767 -0.0675187 -0.05982858
000070 a6 19 87 bb ae 56 f4 bd 4a 54 de bd e4 53 32 bd
       -0.0041229306 -0.11930595 -0.108559206 -0.043537036
000080 6f 82 de bc 73 bb 0f bd a6 69 86 bc 4e 61 e6 3c
       -0.027161805 -0.035090875 -0.016407799 0.02812257
000090 8f f7 fd bc 65 00 21 3c 93 89 78 bc 65 56 c1 3c
       -0.031001834 0.009826754 -0.015169519 0.023600766
0000a0 06 ab f6 3c 97 85 0e bc 3a 11 be bb 79 d4 13 3c
       0.030110847 -0.0086988425 -0.0058003934 0.009022825
0000b0 7c d1 75 3c 94 47 b5 bc e1 dc ca 3c 9d e5 1f bd
       0.015003558 -0.022128858 0.024763526 -0.039037336
0000c0 13 0f 53 bc 6c 13 79 bc b3 56 25 3c ae 5c 62 3c
       -0.012882012 -0.015202384 0.0100914715 0.013816042
0000d0 58 93 84 bd 93 81 2a 3c 6a f2 90 3c 47 c7 19 bd
       -0.06473416 0.010406869 0.017693717 -0.03754356
0000e0 d5 1b f3 3b 9a 3e 79 bd ec f9 de 3b 7f b8 d9 3c
       0.0074190893 -0.060850717 0.0068046954 0.026577232
0000f0 6b db 02 3a 7b f8 4e bd 5d b1 3a ba b3 74 89 3c
       0.0004991802 -0.05052994 -0.0007121766 0.01677928
000100 8d 31 2e bd c6 b5 1b 3b 72 5f 32 bd 7f 95 32 bc
       -0.042527724 0.0023759468 -0.043548055 -0.0108999
000110 ff a8 31 3d e0 cd 2b 3d be 9a ae bc 0c 11 5a bd
       0.043374058 0.041944385 -0.021314021 -0.053238913
000120 d3 c4 bb 3c 8d 0e 5b bd 89 c4 92 3c d6 c9 f7 3c
       0.022921002 -0.053480674 0.01791598 0.03024761
000130 51 ae db 3b 62 e9 d0 3b d4 a7 6a bd 34 b6 bd bc
       0.0067041297 0.0063754776 -0.05728896 -0.02315817
000140 d4 59 62 bd 5c 75 2a 3d a1 b4 a7 ba 61 64 e8 bc
       -0.055261448 0.04161583 -0.001279492 -0.028368177
000150 0a 0a 35 bd d9 ce 2a bd 07 1b 87 bc 04 e4 12 3d
       -0.044199027 -0.04170117 -0.01649238 0.035861984
000160 6f 8f 14 3d 6d e3 78 3a 97 68 65 bd 46 c1 c3 3a
       0.0362696 0.00094943383 -0.056007948 0.0014934919
000170 69 6a 26 bd a0 3c 75 bd f0 dc 62 bd b8 1b 31 3d
       -0.040628824 -0.05987227 -0.055386484 0.043239325
000180 d8 fc 41 bd f4 de ef 3c 0b cc 33 3d 84 6f a6 bc
       -0.04736027 0.029281117 0.043895762 -0.020316847
000190 1d 60 9e 3c ec 7d 31 bc 81 39 8c bc f4 44 17 3c
       0.01933294 -0.010833245 -0.017117264 0.009232748
0001a0 ee fe 3c bd 5e 1a 12 3d 5d 3e 25 bd 5e b6 78 bc
       -0.046141557 0.035669677 -0.040342677 -0.0151801985
0001b0 57 10 92 bc 79 50 98 3c df 74 59 bc 6d 46 86 3c
       -0.017830057 0.01859306 -0.013272493 0.016391004
0001c0 1f 06 4f 3c 36 01 87 bc 4a f9 6c 3c 69 0e 30 bd
       0.012635737 -0.01648007 0.014463732 -0.042982493
0001d0 e0 de 49 3c 5f 70 b4 3c 37 ad 21 bc 94 2e 18 3d
       0.012321204 0.022026239 -0.009867958 0.037153795
0001e0 6a b6 28 3d e2 5a 2f bb 7a a9 5a bb 51 aa e0 3c
       0.04118959 -0.0026757051 -0.0033365176 0.027424963
0001f0 78 78 05 bc 40 b3 4a 3a f5 fa 8e bc 8b e0 3c bd
       -0.008146398 0.0007732399 -0.01745365 -0.04611258
000200 d5 48 ae bb 64 c7 3a bc 32 02 0b bc 6a e5 07 bd
       -0.005318741 -0.0114000775 -0.00848441 -0.03317777
000210 c2 80 b5 3c 42 77 fb bc 7a 1f db 3a d3 78 ed bc
       0.022156123 -0.030696515 0.0016717755 -0.028988278
000220 6d 03 92 3c c5 1b 95 3c 8e cf 76 bc b2 b8 e4 bc
       0.0178239 0.018201718 -0.015064133 -0.0279201
000230 8c e1 ff 3c 9c 6a 68 3b 33 5d cd 3c 06 b1 48 3d
       0.031235479 0.0035463935 0.025068855 0.048996948
000240 41 7d 03 bd 28 63 3b bd 9a a2 86 bd 10 cd 69 bc
       -0.032101873 -0.04574886 -0.065739825 -0.014270082
000250 bd e1 e7 3c 60 b7 7c 3c 41 76 3a bd 37 6d 3e ba
       0.028305883 0.015424579 -0.045522932 -0.0007264199
000260 50 25 ec ba b6 f0 5b 3c 9d 98 8b 3c c4 6b 40 bd
       -0.0018016491 0.013424089 0.017040545 -0.046977773
000270 7e c6 17 3d a7 1c 1e bd 7e aa 9c 3b db 50 1c 3c
       0.03705453 -0.038601544 0.0047810664 0.009540762
000280 6f 21 14 3c 3b db 0d 3c ea 68 05 3d 0a 68 46 3c
       0.009041174 0.008658226 0.032570757 0.012109766
000290 9d d3 15 bd f1 e9 73 3c 7d d3 f0 3b b4 a9 3e bc
       -0.036578763 0.014887319 0.00734943 -0.01163714
0002a0 1c a5 f6 3a b7 ad 0d bd d6 79 4f bd 41 52 3d bd
       0.0018817517 -0.034589496 -0.0506533 -0.04622102
0002b0 2d 82 0c 3d 93 55 49 bc 33 e2 a1 3c 3b 05 7f 3c
       0.034303833 -0.012288469 0.01976118 0.015565212
0002c0 d7 0a 34 bd 24 42 20 3d 2d ee 8d bc 3e ce 33 bd
       -0.04395565 0.039125577 -0.017325485 -0.04389786
0002d0 5c ab 46 bd 0f b5 92 bc 09 66 e8 3c 6a 93 35 bd
       -0.048503265 -0.017908601 0.028368967 -0.044330038
0002e0 92 e7 07 3d 3e 6a 11 bc 0a da 40 3d e4 08 9f bc
       0.033179827 -0.008875428 0.04708294 -0.019413419
0002f0 fa d6 c4 3c 7b 4a 2d 3d 10 ab 35 3d 57 e6 3c bd
       0.02402829 0.04230736 0.04435259 -0.046118107
000300 33 37 20 bd 55 44 b0 bc 37 68 00 bc c2 ac eb bb
       -0.039115142 -0.021516958 -0.007837347 -0.007192225
000310 09 0d 9f bc af 1f ee bc f7 1c 10 3c 85 91 fa bc
       -0.019415395 -0.029067842 0.008795968 -0.030586967
000320 91 58 8f bc 2e 35 21 3b df fe 1d 3d e7 0e 24 3d
       -0.017498286 0.0024598348 0.038573142 0.040053274
000330 48 6c 05 3d a4 6a 98 b9 63 02 8f bc b2 f6 18 3d
       0.03257397 -0.00029071153 -0.017457193 0.037344642
000340 c0 d4 85 3b 1b 73 de 3c b6 02 26 3d 5c 2d 03 bd
       0.0040841997 0.027154496 0.04052993 -0.03202568
000350 8a b3 46 bd 58 8a 3b 3d 2e 74 c2 3c 92 cd fb bc
       -0.048511066 0.04578623 0.02373704 -0.030737672
000360 b8 b6 4b 3d f8 77 f5 3c 9c 1b 76 bc cf 23 28 3c
       0.0497348 0.029964432 -0.015021231 0.010262444
000370 95 dd 39 3d df 33 67 bc 69 f0 4f 3d 02 e5 a5 3c
       0.045377333 -0.014111488 0.050766382 0.020250801
000380 63 d8 9d bb 91 7c 04 3d d0 02 4f bc aa 0e 72 3c
       -0.004817055 0.03234536 -0.012634948 0.014774004
000390 17 71 1e 3d 1f 7e 0d 3b c4 8c 9f bc 34 20 10 bd
       0.03868207 0.0021590067 -0.019476302 -0.03518696
0003a0 86 7e 34 3c 06 48 83 3c d3 c0 13 bc 63 fd c1 3b
       0.011016494 0.016025554 -0.009018141 0.0059200986
0003b0 26 fb aa 3c 60 e0 f9 bc b8 3e ea 3c a6 96 3a bd
       0.02087171 -0.030502498 0.02859436 -0.045553826
0003c0 62 6b e8 bc 16 9a c2 bb 5b 6d 34 bd 69 98 b4 3c
       -0.028371517 -0.0059387786 -0.044049602 0.022045331
0003d0 25 f5 10 bd bd ab 0e bd 5f 28 15 bd 64 51 eb bc
       -0.035390038 -0.03483175 -0.036415454 -0.028725334
0003e0 27 15 e8 bb 7d 3f 82 3c 35 df 6d bc e1 17 a8 3b
       -0.0070825997 0.015899414 -0.014518549 0.0051297997
0003f0 74 4e 1f bd 7d d4 7e bd 76 b1 19 bd 94 b3 f6 bc
       -0.038893178 -0.062214363 -0.037522756 -0.030114926

fc1.bias f4 [200]
000000 18 6e 80 bc 63 3e 89 3c 24 5f 93 3a c7 fb 99 3d
       -0.015677497 0.016753381 0.0011243564 0.07518726
000010 f4 c9 2e bc 02 43 2e 3d 8a 9c d8 bc 40 6e 19 3d
       -0.010668267 0.042544372 -0.026441831 0.03745866
000020 e6 c4 ad bc 72 75 85 bd 0c da 9e 3d 70 83 0b bc
       -0.021212053 -0.065165415 0.07756433 -0.008515224
000030 50 05 05 bb 11 3d 71 3c e4 6c 26 3c 87 53 2b bd
       -0.0020297356 0.014724032 0.0101577975 -0.041827705
000040 11 ba 40 3d 3a ae 2b 3d b0 98 84 bc cf 70 57 bd
       0.047052447 0.041914202 -0.016186088 -0.052597817
000050 eb e5 33 bd c1 9a 75 3d c3 d1 85 bd 36 bc 76 bd
       -0.04392044 0.059962038 -0.065341495 -0.060238086
000060 b1 88 22 bd 02 ac 3d bb b0 62 28 3c e9 94 41 bd
       -0.03968114 -0.0028941636 0.010277435 -0.047261152
000070 7b 6f 60 3d 33 4e 15 3d a7 1c 37 3c 86 04 2d bd
       0.054793816 0.03645153 0.011176265 -0.042240642
000080 0b 62 94 3d b0 f8 4d 3d eb 60 7c bd 62 3e 94 3b
       0.07245263 0.050285995 -0.061615866 0.004524038
000090 24 e2 89 bb 8a 6a 3c bb c7 93 d7 3d 96 3c ae 3c
       -0.0042078663 -0.0028750026 0.10526233 0.021269124
0000a0 82 a6 a4 bc 5a 7d 01 3d 6f 84 34 3d 1c 40 a3 bc
       -0.020098928 0.031613685 0.04407161 -0.01992803
0000b0 54 78 76 bd 3b 49 cd bc 53 0e 3b bd bb c5 24 3d
       -0.060173348 -0.025059333 -0.045667958 0.040227633
0000c0 17 e5 52 3b 4d 84 db bc 82 76 f9 3c f1 9c 93 bc
       0.0032180005 -0.026796484 0.030452017 -0.018019171
0000d0 53 77 c9 bd 2c cf 52 3d e0 53 56 bd 63 c4 37 3c
       -0.098372124 0.051467106 -0.052326083 0.011216256
0000e0 33 2f 2d bd 8b 93 e2 bc af e0 23 bd d7 ca bc bc
       -0.04228134 -0.027658245 -0.040009197 -0.02304594
0000f0 be 0e 64 bd 73 74 b9 3b bf 40 1f 3d b5 66 be 3c
       -0.05567812 0.005659634 0.038880106 0.023242334
000100 c0 f4 ed bc 16 b9 94 3c 39 a8 96 bd 90 13 c9 3b
       -0.02904737 0.018154662 -0.07356305 0.0061363652
000110 72 b5 19 bd a3 78 92 3b 6e 66 f1 3d 5b 8e e9 bc
       -0.037526555 0.0044699474 0.11787115 -0.028510263
000120 48 c4 11 3d 81 ba eb ba 22 fd 0b bd 9b 26 df 3b
       0.03558758 -0.001798466 -0.034176953 0.006810022
000130 92 a2 32 bd dc 9f e5 3c c0 5a a8 3d ba 17 df 3c
       -0.04361207 0.028030328 0.08220434 0.027232993
000140 01 62 b6 bb b8 2d ec bc 56 02 ff 3c b2 c2 3c bd
       -0.005565882 -0.028830394 0.031129044 -0.046084113
000150 74 d2 05 bd 6c 00 78 3c bf 1b ac bd 9e 26 b2 bc
       -0.032671407 0.015136819 -0.0840373 -0.02174693
000160 79 86 66 bd 21 8e b7 3c 6a a2 3e 3c 56 51 32 3e
       -0.056280587 0.02240664 0.011635402 0.1741384
000170 af b7 80 bc ea 13 11 3d 6a 80 3f bd 30 f2 8e bc
       -0.015712587 0.035419382 -0.046753325 -0.017449468
000180 c5 1b 0b 3c 48 1e 02 bd fd 76 f9 ba 00 37 13 bc
       0.0084905075 -0.03176716 -0.0019032654 -0.008985281
000190 e2 04 51 bd 18 20 6b bd fe ee 41 bd 7f 01 16 bd
       -0.051030047 -0.057403654 -0.04734706 -0.03662252
0001a0 9b 23 bf 3d c7 06 7d bd ef 9c 45 bd 3f cd 50 3c
       0.09332963 -0.06177404 -0.048245367 0.012744247
0001b0 be 29 b2 bc f5 89 68 3c 96 48 6a bd b9 3d c7 bc
       -0.02174842 0.014193048 -0.05719813 -0.024321424
0001c0 3a 50 06 3d 1d 8b e8 3d 95 83 63 bd 83 21 86 bd
       0.032791354 0.11354659 -0.05554541 -0.065493606
0001d0 af d9 64 3d e8 2c 17 bc 8c d1 fd 3d 8c 3c ba bc
       0.05587166 -0.009227015 0.123934835 -0.02273395
0001e0 ae 88 c7 bc 55 99 af bd a3 6d 52 3d 72 c6 68 bd
       -0.024357166 -0.08574168 0.05137409 -0.056829877
0001f0 ba 23 51 bd ee 47 1f 3c 03 57 87 3c 2b a7 0d bd
       -0.051059462 0.009721739 0.016520983 -0.034583252
000200 b8 bd 26 bd 21 a5 60 bd e9 66 fa bc 99 44 ba bd
       -0.040708274 -0.05484498 -0.03056665 -0.09095115
000210 f3 5c 1c bc 92 9e d0 3d 76 95 db bc 6c 10 8c bd
       -0.009543645 0.10186495 -0.026804667 -0.0683907
000220 05 c1 1d 3d 1c 11 6c bd 9a 3e ae 3b e5 ea 5d 3d
       0.038514156 -0.057633504 0.0053175213 0.05417909
000230 25 e7 59 bd cc 5f 6d bd 8c a9 45 3a 1d d5 4c bd
       -0.053198952 -0.057952687 0.0007540218 -0.05000793
000240 49 93 1b bc 7e eb 02 3d 05 48 86 3d 76 50 d7 bc
       -0.009495565 0.031962864 0.065567054 -0.026283484
000250 4e eb a8 3d 8a 47 0a bd fe 46 b1 bd 4f 2c 98 3b
       0.08248006 -0.03375963 -0.08656119 0.004643954
000260 78 9f 8f 3b f6 c0 c7 3c d8 a4 00 3c 57 f1 b7 bb
       0.004383024 0.024384003 0.007851802 -0.0056134867
000270 c4 40 b9 3b 49 9e b2 bc de db 91 bc b0 1e 92 bb
       0.0056534726 -0.021803992 -0.017805036 -0.0044592246
000280 e8 69 d8 bc a9 cf e6 3a 73 52 83 bd fc 61 8c bd
       -0.026417688 0.0017609495 -0.0641221 -0.068546265
000290 11 08 65 3d fe f3 3c 3d ef c8 dd bc 06 b8 76 3d
       0.055915896 0.046131127 -0.027073352 0.060234092
0002a0 7a d1 f9 3d fa 2f 1d bc 4e 62 84 bd 63 cb b4 3c
       0.121981576 -0.009593958 -0.06464063 0.022069639
0002b0 b3 11 6e bd 54 59 d5 3c 52 70 b0 3b bb c3 06 bb
       -0.058122348 0.026043572 0.0053844834 -0.0020563442
0002c0 24 d6 8b bd be 70 39 bc 41 60 2d bd f7 af 81 bd
       -0.068279535 -0.011318384 -0.042328123 -0.06332391
0002d0 eb b2 b6 3c 5e b9 4e bd da ea 19 3d dc 52 01 bd
       0.022302112 -0.05046975 0.037577488 -0.03157316
0002e0 3d 22 c4 3c 17 fd cc bc 71 39 d8 bc 75 46 2e 3c
       0.023942107 -0.025023026 -0.026394578 0.010636915
0002f0 94 8a 0f bd 8b af 8a 3c e8 5e 86 bd 72 c6 6b 3d
       -0.035044268 0.016929409 -0.06561071 0.0575623
000300 ed 81 2c bd d2 2a 3b bc d4 12 09 3d 18 e9 8e bd
       -0.042116094 -0.011423783 0.03346522 -0.06978053
000310 4c 09 0e bc d2 07 87 3d 47 62 8b bd d6 63 f7 bb
       -0.008669209 0.065932885 -0.06805854 -0.007549743

fc2.weight f4 [20, 200]
000000 da 41 ea 3c 15 ec 5d bd 9a f6 e7 3c 6d fc d7 3b
       0.028595854 -0.054180223 0.028315831 0.006591371
000010 f9 ef 51 bc 1f 5f 51 3c f9 c1 26 bd c0 59 b1 bc
       -0.012813562 0.012779026 -0.04071233 -0.021649241
000020 ce 61 7e bd 3a bc 1d bd 11 31 b8 bc cc 13 82 bc
       -0.062104993 -0.038509585 -0.022484334 -0.01587858
000030 d1 ad 81 bd 70 59 9d bc c8 e1 0c 3d f6 fb 94 bc
       -0.06331981 -0.019207686 0.03439501 -0.01818655
000040 79 59 01 bd 64 1e 81 3c 40 5f 49 3d 1e fd 1a bd
       -0.03157947 0.015761562 0.049163103 -0.037839048
000050 33 c2 87 3c b0 f1 30 3c a6 8e c4 bb 74 06 b5 bc
       0.016572094 0.01079981 -0.0059984503 -0.022097804
000060 d0 14 8e bd 5b 66 80 3d 7d 72 74 bc d9 69 f6 b9
       -0.069375634 0.06269523 -0.014919874 -0.0004699964
000070 b3 0e 33 bd c2 8e 90 3c d8 9c d2 bd fe 5c d0 3c
       -0.04371519 0.017646197 -0.10283822 0.025434967
000080 96 3d ad bd 64 dc 9c bd af 9e b8 ba 81 56 06 bd
       -0.08459012 -0.07659224 -0.0014085377 -0.03279734
000090 fd 9f 3e ba d1 6b 65 bd f6 aa 8d bc 76 e6 16 bd
       -0.0007271765 -0.056011025 -0.017293435 -0.03684088
0000a0 de 66 7d bd b0 8b b7 bc 0d ff b0 bd 1b 58 14 3d
       -0.06186568 -0.022405475 -0.08642397 0.036216836
0000b0 d7 70 32 bd 33 82 e8 3c c9 c7 97 bc 1f 1c a8 bc
       -0.043564644 0.028382396 -0.018527882 -0.020521222
0000c0 b2 4b e0 3c 55 68 ac bc c1 32 29 bd ad bd cc bc
       0.027379844 -0.021045843 -0.04130817 -0.024992788
0000d0 63 39 a8 3c 5a f8 63 bc 0b 89 47 bd 2c ba ce 3c
       0.020535177 -0.013914192 -0.04871468 0.025235258
0000e0 9f ec 97 3b 4a 16 5d bd ac b7 e3 bc eb 11 b4 3c
       0.0046363617 -0.053976335 -0.027797543 0.0219812
0000f0 5a e6 16 bd 68 86 5f bd 24 5d 09 bd 6a 22 01 bd
       -0.036840774 -0.05457154 -0.03353609 -0.03152696
000100 5a 5e 96 3d 3e 93 fd 3c 14 00 0b 3d 5a 5f 8d bc
       0.07342215 0.030954 0.03393562 -0.017257381
000110 54 b5 57 3c 2a 89 55 bc 2b 0d b4 bd f9 74 17 bd
       0.013165791 -0.013033191 -0.08791574 -0.03697679
000120 82 55 09 3d 8a 3c 8c bd 87 a8 5e 3d 4a 16 4b bd
       0.033528812 -0.068474844 0.05435994 -0.049581803
000130 b8 b7 7e bd 14 d1 3a 3c 29 83 09 bd 4f 68 f3 bc
       -0.062186927 0.011402387 -0.03357235 -0.029712824
000140 ca 5a 8f 3d 03 32 22 3d c2 87 a0 3c 73 ae 14 bc
       0.069997385 0.039598476 0.019595984 -0.009074795
000150 90 bb 61 bd 21 26 86 bd f6 cf 16 bc 32 0c b0 3c
       -0.055110514 -0.06550241 -0.009204855 0.02149019
000160 fd 49 ce 3c ab 35 ba bd d4 34 ea bc fa ed b2 3c
       0.025181765 -0.090922676 -0.028589644 0.021841992
000170 b1 a2 4b bd de 08 15 bc e7 85 0a 3c 73 c6 8d bc
       -0.0497157 -0.009096352 0.008454776 -0.017306542
000180 48 df 61 3d 40 a6 e4 bc d3 a4 51 3d 10 26 78 3d
       0.05514458 -0.027911305 0.05118258 0.060583174
000190 6b 68 1e 3d b5 88 45 3c 87 fc 63 3c 22 a8 ce bb
       0.0386738 0.012056519 0.013915188 -0.006306664
0001a0 ff 23 d8 bc 3e db 76 bd 2a f1 54 3d ad ef 22 3c
       -0.026384352 -0.06026768 0.051987804 0.0099448385
0001b0 fc ae 20 bc 31 78 f9 3a eb e6 34 bd 72 59 81 3d
       -0.0098073445 0.0019033012 -0.044165533 0.063158885
0001c0 6f 0f ac bd 0e 6b 3b 3c b4 c9 0d 3c d3 8e 7e bb
       -0.08401381 0.011439098 0.008654047 -0.0038842454
0001d0 e4 76 26 3d 2c 98 f3 bc 8d a9 53 bd 6a 54 f7 bc
       0.040640727 -0.029735647 -0.051675368 -0.030191619
0001e0 b2 cb 1c 3c fe f9 a9 3c cc 68 5a 3d 86 8a 0b bc
       0.009570049 0.020749088 0.0533226 -0.008516913
0001f0 59 5e f2 bc 95 3c 4f 3d 2f cc 51 3d ae 23 5a bd
       -0.029586004 0.050594885 0.051220115 -0.053256683
000200 55 2d 25 bd 24 db 3a bd 87 8a bc 3c a8 91 0c bd
       -0.040326435 -0.045619145 0.023015274 -0.034318596
000210 ef 37 7d 3d 26 65 2f 3d 8e fd 1b 3d c5 2e 33 3d
       0.06182092 0.042821072 0.038083605 0.043745775
000220 bb 89 b8 bc c5 be 79 3d f8 aa 89 bd 39 13 1d 3d
       -0.022526613 0.060972948 -0.06722063 0.03834841
000230 2b 83 01 bd c7 42 03 3d 0d 70 86 3c 88 8f 2c bc
       -0.031619232 0.032046106 0.016410852 -0.010532267
000240 90 7c fc 3b 9c 0c 5b 3c 3a 6b 97 bd 9f 44 c6 3b
       0.0077052787 0.0133697055 -0.07393499 0.0060506607
000250 cf 9f 5d 3d b3 61 6c 3d 53 fc a2 bc 4d 1f a9 39
       0.054107483 0.05771036 -0.019895708 0.00032257513
000260 c6 1d 3e 3c 2d 12 d5 bb 73 63 46 3b 75 fc c4 3c
       0.011603778 -0.006502411 0.0030271679 0.024046162
000270 1d 11 c2 bb 6b f8 74 bd 8a e6 05 3d cd fa ad 3c
       -0.00592245 -0.059807222 0.032690562 0.021237755
000280 ca 84 1e bc f9 26 93 bc 57 bc 8f 3d dd 1e a8 bd
       -0.009675214 -0.01796292 0.07018345 -0.08209012
000290 0f e9 4e bd be c5 12 bd 29 9f 99 bb 71 18 43 bd
       -0.05051523 -0.035833113 -0.004688163 -0.04763073
0002a0 87 fd 14 bd 00 0c 93 3d eb 83 b6 bc 82 17 69 3c
       -0.036374595 0.07180023 -0.0222797 0.014226796
0002b0 b9 6e 7c 3d d3 c0 05 bc d9 36 d0 3c 5c 54 21 3d
       0.06162903 -0.008163649 0.025416778 0.039387092
0002c0 22 26 6c bc b9 57 7d bd 5e 65 dd bc 4b ea a3 3d
       -0.014413388 -0.061851237 -0.027025875 0.08003672
0002d0 c3 26 0a bd ea f4 ba bc 21 12 b6 3d 35 82 bc 3c
       -0.033728372 -0.022821862 0.088901766 0.023011306
0002e0 b8 5c 82 bd 49 e7 11 3d 6d 4e b8 bd 0a 22 16 bd
       -0.06365341 0.03562096 -0.089993335 -0.036653556
0002f0 fc 62 5f 3d 53 f9 18 3d 73 4d 5e bd d0 ec 57 bd
       0.05453776 0.03734715 -0.05427308 -0.052716076
000300 4d 48 a8 3d c9 bd d1 3c 16 ff 41 3d 2b 65 1a bd
       0.08216915 0.025603192 0.04736241 -0.037694138
000310 76 f3 4a bd 8b 44 67 bb 7f 31 19 bc dc 00 85 bd
       -0.04954859 -0.0035288658 -0.00935018 -0.064943045
000320 e4 e2 85 3d 1e af 5c bd be 06 e8 3c 02 88 cf 3d
       0.065374166 -0.053877942 0.028323527 0.10133363
000330 4a 50 11 3d 4b 59 2e 3e 14 aa 36 3c 03 e3 76 be
       0.03547696 0.1702625 0.011148948 -0.24110036
000340 a7 f5 20 bd eb 15 56 3d 32 00 a3 3d 60 70 4e be
       -0.039296772 0.052266996 0.07959022 -0.20160055
000350 3f b3 03 ba df a3 29 3d 80 be bb 3c f7 ae 3e bd
       -0.0005023963 0.041416045 0.022917986 -0.04655358
000360 c6 aa 64 3d a5 55 00 3e de 21 85 3d de ae d6 3c
       0.055826925 0.12532671 0.065006 0.02620643
000370 be 56 52 3d 1d 42 96 bd f2 79 b2 be e9 8f 87 3d
       0.051352255 -0.07336829 -0.34858662 0.066192456
000380 5c a4 e4 bc 6f c1 a8 bc 3c 01 eb 3d 51 9f 29 bd
       -0.027910404 -0.020600049 0.11474845 -0.0414117
000390 31 ce ff bd 61 2f e1 bc ef 98 2d 3c d3 06 3d 3e
       -0.124905 -0.027488412 0.010595544 0.18459634
0003a0 2d 53 7c 3d 67 57 38 bd 25 d1 59 3d 99 7f b2 3c
       0.06160276 -0.04500523 0.05317797 0.021789359
0003b0 19 d3 e3 3c 48 23 ed bc 3b a7 16 3e 8e 66 c1 bd
       0.02781062 -0.028947487 0.14712231 -0.09443389
0003c0 10 b3 5a 3d da 6a 11 3d f9 f4 ba be 39 fb 88 3e
       0.053393424 0.035502292 -0.36515024 0.26754168
0003d0 0d c5 ec 3c 22 49 bc 3c f6 cd 2f bd 0c d4 88 3d
       0.028902555 0.022984091 -0.04292103 0.0668107
0003e0 45 87 20 bc 27 37 26 3d f4 af 9d bc 01 1e 6c 3d
       -0.009797876 0.04057994 -0.01924894 0.0576458
0003f0 e9 d8 90 be ef fc 92 3d db 3f 7c 3d 62 d9 5b bc
       -0.2829049 0.071771495 0.061584335 -0.013418527

fc2.bias f4 [20]
000000 0a 30 e5 bd 21 d1 3d 3d 97 9d 97 3c 71 59 4a 3c
       -0.11190803 0.04634202 0.018507762 0.012350426
000010 60 ec a3 bc 43 ff 53 bb 95 29 aa b9 20 a4 aa 3c
       -0.020010173 -0.0032348193 -0.00032455908 0.020830214
000020 c2 ce 83 3d 2f b6 2b 3d ea 58 33 bd 99 84 80 3d
       0.0643592 0.04192179 -0.043785967 0.06275291
000030 1a 7f 96 3d e0 eb 82 bd 9a 92 02 3d 06 6c 83 3d
       0.073484614 -0.06392646 0.03187809 0.06417088
000040 28 d3 35 3d 2a 62 70 3d e9 be 0a bd 1b 5c 69 3b
       0.044390827 0.058687367 -0.033873472 0.0035607878

fc3.weight f4 [2, 20]
000000 5b 40 38 be 60 3f 06 be 05 8e 55 3e 96 1f 88 3e
       -0.179933 -0.13110113 0.20854957 0.26586598
000010 da f5 98 be 7b f8 87 bd ee 48 44 3d 79 b4 27 3e
       -0.2987507 -0.06639191 0.047921114 0.16377439
000020 92 ed 13 ba 56 f7 b7 3c c7 bd 89 3e 48 3a 7b be
       -0.0005643006 0.022456806 0.269026 -0.24533951
000030 55 80 5d 3e 03 85 e9 bb 1f 0c 09 be 06 b2 f1 3d
       0.21630986 -0.007126452 -0.1338353 0.118015334
000040 66 32 31 3e 1d 47 86 be 01 c6 59 3d 48 ef 17 bd
       0.17304382 -0.2622613 0.053167347 -0.03709343
000050 50 b6 ad bd fd e1 93 3e fa 4c 48 3e 5a 26 87 be
       -0.08482039 0.28883353 0.19560614 -0.26396447
000060 b2 d9 bd 3d 40 41 15 be 84 49 00 be 42 06 f9 bd
       0.09270038 -0.14575672 -0.12528044 -0.12159397
000070 d0 92 94 3e 0c c8 a9 3e 8c 80 49 be 11 d5 ac 3d
       0.2901826 0.33160436 -0.19677943 0.08439077
000080 2d 0f fb bd 7c a8 03 3e 64 3f 81 3e 25 05 81 be
       -0.12258754 0.1285724 0.25243676 -0.25199237
000090 ca 05 47 be de 4e 9f 3d 77 7f 94 bc 84 85 ea bd
       -0.19435802 0.077787146 -0.018127186 -0.11451247

fc3.bias f4 [2]
000000 c1 46 24 3e 9b 50 26 3e
       0.16042615 0.16241686
